A2C/earliest_model/checkpoint_30.64.pth (torch, 358882 bytes, 16 tensors)

std f4 [4]
0	0xbf4d9880	-0.8031082
1	0xbf484993	-0.78237265
2	0xbf486ab8	-0.7828784
3	0xbf4e90e5	-0.8068984

actor_fc1.weight f4 [64, 33]
0	0x3d2e29a2	0.042520173
1	0x3a8e4334	0.0010853768
2	0x3d3ffd1b	0.04687224
3	0x3d9682ca	0.07349165
4	0x3e63f866	0.22262725
5	0x3e2ffe76	0.17186913
6	0xbe37a984	-0.17935759
7	0x3e037baf	0.1284015
8	0x3db60d30	0.08889234
9	0x3dd81d95	0.10552517
10	0x3d5c0b98	0.053721994
11	0xbdd2db76	-0.10295765
12	0xbd80e262	-0.06293179
13	0xbd94b4b5	-0.0726103
14	0xbd6e3182	-0.058152683
15	0x3d9d326b	0.07675632
16	0x3e362289	0.17786612
17	0xbcd640a2	-0.026153866
18	0xbc58a3e9	-0.013222673
19	0xbd8ef434	-0.06980172
20	0x3da7b22a	0.08188279
21	0x3dd77b42	0.105215564
22	0xbc91d2db	-0.017800739
23	0xbe237010	-0.15960717
24	0xbe325277	-0.1741427
25	0x3d6db681	0.058035377
26	0x3cda2f6e	0.026633944
27	0x3e63e1ea	0.22254148
28	0xbcb77c2c	-0.022398077
29	0x3da2d585	0.07950882
30	0xbe0af466	-0.13569793
31	0x3dd86fe5	0.10568217
32	0x3e801a1e	0.25019926
33	0xbdcdc6e7	-0.10047703
34	0x3d25775a	0.040397026
35	0xbdc832b2	-0.09775294
36	0xbdd4c73a	-0.10389562
37	0xbc836fa7	-0.01604445
38	0xbd554ce1	-0.05207527
39	0xbbee2e12	-0.0072686756
40	0xbd6ec005	-0.058288593
41	0x3da5fc0a	0.08104713
42	0xbdbcc36a	-0.0921696
43	0xbd5816f4	-0.052756265
44	0xbe04ffa8	-0.1298815
45	0xbdcd3f07	-0.10021787
46	0x3e534a04	0.20633703
47	0xbc699aa8	-0.014258064
48	0x3e147e3d	0.14501281
49	0xbc846a28	-0.0161639
50	0x3d9c0905	0.07618908
51	0x3c5aca67	0.013353921
52	0xbd86532a	-0.06558831
53	0xbe197b0f	-0.1498835
54	0x3d870666	0.06593017
55	0xbd7ff6fa	-0.062491395
56	0x3da8679b	0.08222886
57	0x3e40800e	0.18798849
58	0xbe389dad	-0.18028899
59	0xbcf69275	-0.030099133
60	0xbe05b286	-0.13056383
61	0xbc418e29	-0.011813679
62	0xbd2fb9ff	-0.04290199
63	0xbe0f9459	-0.14021434
64	0x3e2d5d9c	0.1693024
65	0x3d889d53	0.06670632
66	0xbe7b111a	-0.24518242
67	0x3d7f0308	0.06225875
68	0x3b88559b	0.0041605956
69	0xbda7394a	-0.08165224
70	0x3e015e1f	0.1263356
71	0x3c20a6f1	0.009805427
72	0xbda29642	-0.07938816
73	0x3dc3a52f	0.09552991
74	0x3d15b878	0.036552876
75	0x3d29819d	0.041383374
76	0xbd9b1f6e	-0.07574354
77	0x3ddd00fa	0.10791202
78	0xbd406fd9	-0.046981666
79	0x3dfa6a89	0.12227351
80	0x3e8d57c0	0.2760601
81	0xbe1562ab	-0.1458842
82	0xbe0e335c	-0.1388678
83	0x3d33cd53	0.043896984
84	0x3e1d98f2	0.15390375
85	0x3beeec0a	0.0072913216
86	0x3cd85745	0.0264088
87	0xbe577b43	-0.21043114
88	0xbe2802bb	-0.16407292
89	0x3ae35c21	0.0017346182
90	0x3e2a0a77	0.16605555
91	0x3e3ade23	0.18248801
92	0xbe3ac296	-0.18238291
93	0x3df569cb	0.11983069
94	0xbd7a6adb	-0.06113706
95	0xbddd992e	-0.10820232
96	0xbe0f5bae	-0.13999817
97	0xbe301838	-0.17196739
98	0xbd5a3ce1	-0.053280715
99	0xbde60f33	-0.11233368
100	0xbb6958dd	-0.0035605945
101	0x3e1656a7	0.14681493
102	0x3da6ddb9	0.08147759
103	0x3c91a054	0.017776646
104	0x3dd55c60	0.1041801
105	0xbd350342	-0.04419256
106	0xbdf569f0	-0.119830966
107	0x3d0c7c39	0.034298155
108	0x3d0a8445	0.03381755
109	0xbdbaf16f	-0.09128081
110	0x3df5242c	0.1196979
111	0x3e2cfac0	0.16892529
112	0xbd8e2d78	-0.06942266
113	0x3b10b9ac	0.0022083325
114	0x3da76d7b	0.081751786
115	0x3cde640c	0.027147315
116	0xbdd1c0b9	-0.10241837
117	0x3d254a1a	0.040353872
118	0x3d6b2ee2	0.057417758
119	0x3aa0954b	0.0012251524
120	0xbe2972ba	-0.16547671
121	0xbdcdd617	-0.100506
122	0xbccd22ea	-0.025041062
123	0xbc941a74	-0.01807902
124	0x3da14e14	0.0787622
125	0x3d8c50e5	0.06851367
126	0x3e1c3977	0.15256296
127	0x3cf4faa3	0.02990467
128	0xbd738046	-0.059448503
129	0x3b682473	0.0035422116
130	0xbe076654	-0.13222629
131	0x3eae6ab9	0.34065798
132	0x3cc1f4f5	0.023676375
133	0xbde0fcfd	-0.10985754
134	0xbe050c4e	-0.12992975
135	0x3d5118d6	0.051049076
136	0x3d5bec69	0.053692255
137	0x3d6c23de	0.057651393
138	0x3e00aa10	0.12564874
139	0x3dac013b	0.08398672
140	0xbd17557d	-0.036946762
141	0x3d7c2f2c	0.061568424
142	0xbd41ab6f	-0.047282632
143	0xbd9e3df4	-0.0772666
144	0x3aa80099	0.0012817561
145	0xbe6152b0	-0.22004199
146	0xbe001ea8	-0.12511694
147	0xbe0ef26d	-0.13959666
148	0x3dc1c2df	0.09460997
149	0x3d8fbf25	0.0701888
150	0xbdd1a9a1	-0.10237432
151	0xbbb83e72	-0.0056226784
152	0x3bec100f	0.007204063
153	0x3dc71650	0.09721053
154	0xbc9e255c	-0.019304924
155	0x3c1a5eb7	0.009421996
156	0x3dc7d908	0.09758192
157	0xbd822c62	-0.063561216
158	0x3e307d50	0.17235303
159	0xbca3684d	-0.019947195
160	0x3de93a54	0.11388078
161	0x3db5ce8c	0.08877286
162	0x3daff653	0.085919045
163	0x3e13e175	0.14441474
164	0xbe4da343	-0.2008181
165	0xbe98f74d	-0.29876176
166	0xbe343b86	-0.17600831
167	0xbd970842	-0.07374622
168	0xbe3207b8	-0.17385757
169	0xbd704f47	-0.058669355
170	0xbda667a2	-0.08125235
171	0x3d065ab3	0.03280134
172	0x3dac6130	0.084169745
173	0xbd911b73	-0.07085314
174	0x3dabf024	0.083954126
175	0x3cc93d9d	0.024565512
176	0x3d544937	0.051827636
177	0x3dcdcb22	0.1004851
178	0x3dbe2f28	0.09286338
179	0x3defcf71	0.11709488
180	0xbdee2739	-0.11628575
181	0x3d9d2351	0.07672752
182	0xbd2575cc	-0.040395543
183	0x3ca8af62	0.020591442
184	0xbd92f8e4	-0.07176378
185	0xbe1367cd	-0.14395066
186	0x3c2c5ac6	0.010519689
187	0xbe796c2b	-0.24357669
188	0x3dee152f	0.11625134
189	0x3df574eb	0.11985191
190	0xbe28a72f	-0.16470025
191	0xbd8b1f1a	-0.067930415
192	0xbd3f0494	-0.046635225
193	0xbcb9870c	-0.022647403
194	0xbd4f4d19	-0.050610635
195	0x3ce85314	0.028359927
196	0xbddd978f	-0.10819923
197	0x3e9572c1	0.29189113
198	0xbe025741	-0.12728597
199	0xbd26fc76	-0.04076811
200	0x3ceab02a	0.028648455
201	0x3cfbaf9e	0.03072339
202	0xbd7859fb	-0.060632687
203	0xbd4590ef	-0.048233923
204	0x3df9ae65	0.12191466
205	0x3e2860bc	0.16443151
206	0xbe0fe8d1	-0.14053656
207	0xbcd78c2d	-0.026311958
208	0xbdceb568	-0.10093194
209	0xbe208acf	-0.15677951
210	0x3b9b60f4	0.0047417823
211	0xbd9d306d	-0.07675252
212	0x3d08bd20	0.03338349
213	0x3d3a1881	0.045433525
214	0xbd4b219d	-0.049592603
215	0x3ba794bf	0.0051141675
216	0xbd74dddb	-0.05978189
217	0x394d1e45	0.000195616
218	0x3df167ed	0.117874004
219	0xbe0bdc31	-0.13658215
220	0xbe1b5994	-0.1517089
221	0x3daaf44a	0.08347376
222	0xbcc973d1	-0.024591358
223	0x3e0292ac	0.12751263
224	0x3dbfe530	0.09369886
225	0xbe130fdd	-0.1436152
226	0x3e170031	0.14746167
227	0x3e227514	0.15864974
228	0x3db3836f	0.08765303
229	0x3dadda32	0.08488883
230	0xbe8e107e	-0.27746958
231	0xbd53075e	-0.051520698
232	0xbdec87ce	-0.1154934
233	0x3e722558	0.23647058
234	0xbe015490	-0.12629914
235	0xbe4df0cb	-0.20111386
236	0xbb2646b2	-0.0025371728
237	0x3e317bbe	0.1733236
238	0xbddf88d0	-0.10914767
239	0xbe0a84c1	-0.13527204
240	0xbd078677	-0.03308722
241	0xbddefd5b	-0.108881675
242	0x3d1e7e1f	0.038694497
243	0x3dd14941	0.1021905
244	0x3dc3ede2	0.09566857
245	0x3b8846c4	0.0041588265
246	0x3b921449	0.0044579846
247	0xbd71b5da	-0.059011318
248	0x3e33ff6b	0.17577903
249	0x3d1f71f6	0.03892704
250	0xbd9cc1ea	-0.07654174
251	0x3dafbfa2	0.08581473
252	0xbdc80e25	-0.09768323
253	0xbde34448	-0.11097008
254	0x3d50c4fa	0.0509691
255	0x3d149c25	0.036281724

actor_fc1.bias f4 [64]
0	0xbe125dcd	-0.14293595
1	0x3e49c061	0.19702293
2	0xbdd7daaf	-0.105397575
3	0xbe482e9f	-0.19549035
4	0x3e51154c	0.2041828
5	0x3df8deb8	0.12151855
6	0x3de0d31d	0.10977767
7	0x3de521fb	0.11188122
8	0xbd54ac3d	-0.05192207
9	0x3c5b7239	0.013393932
10	0xbe2fb893	-0.17160253
11	0x3d28efd1	0.04124433
12	0xbd1143b3	-0.035464954
13	0xbd08f3e5	-0.03343572
14	0xbda6e1e9	-0.08148558
15	0xbe3fb257	-0.18720375
16	0xbe08af56	-0.13348135
17	0xbdc2e772	-0.09516801
18	0x3d07d422	0.03316129
19	0x3dce35b5	0.100688376
20	0xbe1dc502	-0.15407184
21	0x3db2d94e	0.08732854
22	0xbd79a1e7	-0.060945418
23	0x3e4820ce	0.19543764
24	0xbcaaecb3	-0.02086482
25	0x3dc7cfa0	0.09756398
26	0xbe221474	-0.15828115
27	0xbd985b74	-0.07439318
28	0x3df744c3	0.12073662
29	0xbdcfe4eb	-0.101510845
30	0xbe1f61ba	-0.15564623
31	0xbc06ff75	-0.008239617
32	0x3c20af8d	0.00980748
33	0xbdb8a9e7	-0.09016781
34	0x3dde0513	0.108408116
35	0x3d978d19	0.07399959
36	0xbd489618	-0.048971266
37	0x3dc37890	0.0954448
38	0x3d98d854	0.07463136
39	0x3d0c7950	0.03429538
40	0xbe3a71c6	-0.18207464
41	0x3dfc8c73	0.12331476
42	0xbe1ce5b9	-0.15322007
43	0x3cac1f14	0.021010913
44	0xbe26c5b5	-0.16286357
45	0xbdcfb46a	-0.10141833
46	0xbb8afeef	-0.0042418162
47	0x3e09985c	0.13437027
48	0x3dceb30a	0.10092743
49	0xbcf7c3b7	-0.030244691
50	0xbda2e0cc	-0.07953033
51	0x3d164bc1	0.03669334
52	0x3d218829	0.039436493
53	0x3d430e80	0.04762125
54	0x3d533765	0.0515665
55	0xbe30b7fc	-0.17257684
56	0x3dfffdca	0.12499578
57	0x3beb9328	0.0071891733
58	0xbe06feab	-0.13183086
59	0xbdddef0e	-0.10836612
60	0x3dcd389c	0.10020563
61	0xbde17050	-0.1100775
62	0xbd2d5700	-0.042319298
63	0x3ddeb95e	0.108752

actor_fc2.weight f4 [128, 64]
0	0xbb8a2876	-0.004216249
1	0x3d3702eb	0.044680517
2	0x3e1a40a1	0.15063716
3	0x3d8e14b0	0.069375396
4	0xbd9325d4	-0.071849495
5	0x3e134320	0.14381075
6	0x3ce1b490	0.02755192
7	0x3db15ef7	0.08660691
8	0x3ceacf1e	0.028663214
9	0xbdb86e43	-0.09005406
10	0x3d0fa68b	0.035070937
11	0x3dc5f7a2	0.09666373
12	0xbd7aa59a	-0.061193086
13	0x3ca297de	0.019847807
14	0xbc3e08f4	-0.011598814
15	0xbd2e9d44	-0.04263045
16	0xbc4d68be	-0.0125371795
17	0x3e108fcf	0.14117359
18	0xbdb16ce9	-0.08663351
19	0xbadd9fbd	-0.0016908568
20	0xbdf6a08c	-0.12042341
21	0xbd94ab01	-0.07259179
22	0xbddfaebb	-0.10921999
23	0x3d7377c9	0.059440408
24	0xbddd0cab	-0.10793432
25	0x3dd147cb	0.102187715
26	0xbd1130e1	-0.035447005
27	0xbd92a5e4	-0.071605474
28	0xbd2685bd	-0.040654887
29	0xbd95e050	-0.07318175
30	0xbc680a27	-0.014162577
31	0xbcf5d411	-0.030008348
32	0x3d56ee9c	0.05247365
33	0xbd6a781e	-0.05724346
34	0xbaf718f5	-0.0018852042
35	0xbd8da636	-0.06916468
36	0x3ceb854d	0.028750086
37	0xbdfa2ce7	-0.12215596
38	0xbd3327a4	-0.043738976
39	0xbd91e3f7	-0.07123559
40	0xbdde5b43	-0.108572505
41	0x3d5106e4	0.051031962
42	0x3d72f9ab	0.059320133
43	0xbc8be20d	-0.017075563
44	0xbd13b86a	-0.036064543
45	0xbe081927	-0.13290845
46	0x3d731a9f	0.05935156
47	0xbcb62ae5	-0.02223725
48	0x3df9c752	0.121962205
49	0x3d1d01b6	0.03833171
50	0x3bea65a6	0.0071532307
51	0x3d682ced	0.05668347
52	0x3d97f04b	0.07418879
53	0x3d9eed42	0.07760097
54	0xbda2f0af	-0.07956063
55	0x3cd6e678	0.026232943
56	0x3dd694cb	0.10477599
57	0xbc419580	-0.011815429
58	0x3e14626c	0.1449067
59	0x3d1fb8fd	0.038994778
60	0xbc92c42d	-0.01791581
61	0x3de04847	0.10951286
62	0xbc190c09	-0.009341248
63	0xbd01ba6c	-0.031671926
64	0xbcb3bee6	-0.021941613
65	0xbd03dde9	-0.032194052
66	0x3dd71dfb	0.10503765
67	0xbbf7f223	-0.0075667067
68	0x3deb0c8c	0.114770025
69	0xbdcd4803	-0.10023501
70	0x3db41be6	0.08794384
71	0xbd046a0c	-0.032327697
72	0xbdfc6ab4	-0.123250395
73	0x3e052be7	0.13005029
74	0xbc96eed3	-0.018424427
75	0x3d726842	0.05918146
76	0x3d45871a	0.048224546
77	0x3bf19f93	0.007373759
78	0xbe01e245	-0.12683971
79	0xbd1187a5	-0.03552975
80	0x3d57eb23	0.05271448
81	0xbdeb1cb3	-0.11480083
82	0x3d94d476	0.07267086
83	0xbd85e898	-0.06538504
84	0xbe31f19b	-0.17377321
85	0xbdd43267	-0.10361176
86	0x3c843733	0.016139602
87	0xbdaca70a	-0.08430298
88	0xbe705d6c	-0.23473138
89	0x3e23212a	0.1593062
90	0xbc2d1a3c	-0.010565337
91	0x3d1cedda	0.03831277
92	0xbca775b8	-0.020441875
93	0xbd5a7985	-0.053338546
94	0x3e0f1bbe	0.13975427
95	0xbd1187de	-0.035529964
96	0xbdcd5abe	-0.10027073
97	0x3c8fc5ac	0.017550312
98	0xbcab895b	-0.02093952
99	0x3c740681	0.014894129
100	0x3d349f1e	0.04409706
101	0xbdad6286	-0.084660575
102	0x3ca8e70a	0.02061798
103	0xbc15ab5e	-0.009135095
104	0xbd1a9931	-0.03774375
105	0x3dd1ee9f	0.102505915
106	0x3df1c864	0.118057996
107	0x3d9a5bb4	0.07537022
108	0xbd948519	-0.07251949
109	0xbdb33d4e	-0.08751927
110	0x3d5ea513	0.054356646
111	0xbdfc7901	-0.12327767
112	0x3e0e4201	0.13892366
113	0x3db2b2bc	0.08725497
114	0xbe021aaf	-0.12705491
115	0xbd574717	-0.05255803
116	0x3d856fdf	0.06515478
117	0xbdd65578	-0.104655206
118	0x3da4f2ca	0.08054121
119	0xb9b6fcb9	-0.00034902038
120	0x3d944669	0.07239992
121	0x3c5c4299	0.0134436125
122	0x3de34b58	0.11098355
123	0xbd444c2c	-0.047924206
124	0x3d9f2e3c	0.077724904
125	0x3d443a6b	0.047907274
126	0xbdb378a4	-0.08763245
127	0xbddb09cd	-0.10695229
128	0x3d7fc607	0.062444713
129	0x3dfdd452	0.123940125
130	0xbd8fc528	-0.070200264
131	0xbd42c4bf	-0.047550913
132	0xbe064e7a	-0.13115874
133	0xbcd36d1d	-0.025808865
134	0xbdbbc2a1	-0.09167982
135	0xbd6cbe5f	-0.05779874
136	0xbcaf907e	-0.021431204
137	0x3d35ac16	0.044353567
138	0xbc860de5	-0.016364047
139	0x3dc1b2a3	0.094579004
140	0xbe095b82	-0.13413814
141	0x3d52905b	0.0514072
142	0x3d63e8a2	0.055641778
143	0xbb4f8ebe	-0.0031670774
144	0x3d076d19	0.033063028
145	0x3e1d2817	0.15347324
146	0xbdd7e039	-0.10540814
147	0x3d8e073d	0.06934974
148	0xbc7e8f68	-0.01553712
149	0x3c860e8a	0.016364355
150	0x3d08cd69	0.03339902
151	0x3d0fa6ab	0.035071056
152	0xbda31702	-0.07963373
153	0xbdce465b	-0.10072013
154	0x3d0ef623	0.034902703
155	0xbd97695c	-0.073931426
156	0xbdbb5a79	-0.09148116
157	0xbc08a88e	-0.008340968
158	0x3d23252d	0.039830375
159	0xbe3d977b	-0.18514816
160	0xbbf03586	-0.0073305992
161	0xbdf22173	-0.11822786
162	0xbd1b3f66	-0.03790226
163	0xbda85053	-0.08218446
164	0x3de58639	0.112072416
165	0xbcfdb7ff	-0.030971525
166	0xbd7eed4b	-0.06223802
167	0xbdd15d00	-0.102228165
168	0x3ca7e8cd	0.02049675
169	0xbde542f6	-0.111944124
170	0xbdae2779	-0.085036226
171	0x3df7c48a	0.12098034
172	0xbca6f715	-0.02038149
173	0xbd1f83b8	-0.038943976
174	0x3ccbbef8	0.024871334
175	0xbe120032	-0.14257887
176	0xbd8a7e8b	-0.067624174
177	0xbd51d989	-0.05123285
178	0xbdbcb441	-0.09214068
179	0x3d16eb43	0.036845457
180	0x3c8acc82	0.01694322
181	0xbd6e2c19	-0.058147524
182	0xbdb99597	-0.09061735
183	0x3d13adf9	0.036054585
184	0xbc72e199	-0.0148242945
185	0x3dd0d9a1	0.101977594
186	0x3dac530c	0.084142774
187	0xbe2224e4	-0.15834385
188	0x3d995f97	0.074889354
189	0xbd506fec	-0.050887987
190	0x3d99e7dd	0.075149275
191	0x3d69450a	0.056950606
192	0xbdc0f643	-0.09421971
193	0xbca80aee	-0.020513024
194	0x3d978291	0.073979504
195	0xbd98822a	-0.07446702
196	0x3e28d0c3	0.16485886
197	0x3cead18a	0.02866437
198	0x3d1eb655	0.038748104
199	0xbe0685b4	-0.13136941
200	0xbdb844f8	-0.0899753
201	0x3e45e137	0.19324194
202	0x3d91190e	0.07084857
203	0x3ca46e26	0.020072054
204	0xbdf81dd4	-0.12115064
205	0xbcf6ea03	-0.030140882
206	0xbdd23510	-0.10264027
207	0x3dcd22b6	0.10016386
208	0x3bcaa606	0.0061843423
209	0xbe2a32d6	-0.16620955
210	0x3d97cde0	0.074123144
211	0x3db06de7	0.08614712
212	0x3d498f98	0.049209207
213	0x3d9f197c	0.07768533
214	0xbdb8412c	-0.089968055
215	0xbcf01688	-0.029307619
216	0x3d94f8b1	0.072739966
217	0xbd1692d3	-0.036761116
218	0xbd85a442	-0.0652547
219	0x3d0ade1c	0.033903226
220	0xbdcd46ee	-0.100232944
221	0xbd5d91d1	-0.05409414
222	0x3e00d140	0.12579823
223	0xbd109928	-0.03530231
224	0x3d64a19d	0.05581819
225	0xbe101907	-0.14072047
226	0xbe149062	-0.14508203
227	0x3c3066d2	0.010766702
228	0x3e11e48c	0.1424734
229	0xba0086dc	-0.0004902908
230	0xbd4cd903	-0.050011646
231	0x3cb61190	0.022225171
232	0xbd5b6d85	-0.053571243
233	0x3d78e134	0.060761645
234	0xbca64bb9	-0.02029978
235	0x3c4e2b53	0.0125835715
236	0xbd008564	-0.03137721
237	0x3d02b048	0.031906396
238	0x3e17d98a	0.14829078
239	0xbd1bf06a	-0.038071074
240	0xbc8a9538	-0.016916856
241	0xbdb4236b	-0.08795818
242	0xbe1d80a4	-0.15381104
243	0x3bb93424	0.0056519676
244	0xbbac39d3	-0.0052559166
245	0x3e6f9208	0.2339555
246	0x3e361809	0.17782606
247	0x3df03555	0.11728922
248	0x3b917bed	0.004439822
249	0xbcd6990b	-0.026196023
250	0x3e40a260	0.18811941
251	0xbbbf6461	-0.0058408235
252	0xbdcff284	-0.10153678
253	0x3e15d562	0.1463218
254	0xbcb6578a	-0.022258539
255	0x3de7a5af	0.113108985

actor_fc2.bias f4 [128]
0	0x3da3a016	0.07989518
1	0xbde22e2e	-0.11043964
2	0xba0c77ff	-0.0005358457
3	0xbd442b7d	-0.047893036
4	0xbc62ef07	-0.013850934
5	0x3cc64ff2	0.024208043
6	0xbe221d7a	-0.15831557
7	0xbdcec57d	-0.10096262
8	0xbe025165	-0.12726362
9	0x3bf7ad04	0.007558467
10	0x3c1c5dc9	0.0095438445
11	0xbdf4b48f	-0.11948501
12	0xbdad7e63	-0.08471372
13	0x3b2f3e2d	0.002673994
14	0xbc343718	-0.0109994635
15	0x3ba75483	0.00510651
16	0xbdd83808	-0.10557562
17	0xbdae6855	-0.085159935
18	0xbce47ab9	-0.02789055
19	0xbdf6831e	-0.12036727
20	0xbddfe451	-0.1093222
21	0x3dd99047	0.10623222
22	0xbd7910ae	-0.060806923
23	0x3bb0a1c3	0.0053903772
24	0xbd97d0f6	-0.07412903
25	0xbc0f5d2a	-0.008750239
26	0xbe0e6ebc	-0.1390943
27	0xbd994a32	-0.07484855
28	0xbde70825	-0.1128085
29	0x3d7bf100	0.061509132
30	0xbd06a8d4	-0.03287585
31	0x3d6c4904	0.05768682
32	0xbd54f99b	-0.051995855
33	0xbd7e5443	-0.062092077
34	0x3d7a827d	0.0611596
35	0xbddcdaee	-0.10783945
36	0xbde864f7	-0.113473825
37	0xbda0504a	-0.07827814
38	0xbc7463df	-0.014916389
39	0x3cc4a83e	0.024006005
40	0x3cf45f08	0.02983047
41	0x3b7bef28	0.0038442109
42	0xbcbfafaa	-0.023399193
43	0x3bfb0f63	0.0076617463
44	0xbde54ea3	-0.111966394
45	0xbb2b0546	-0.0026095673
46	0x3d3305f6	0.043706857
47	0x3d76dea5	0.060270924
48	0x3d3909f3	0.045175504
49	0xbdcdb27e	-0.1004381
50	0xbd6374f4	-0.055531457
51	0xbda0d2b1	-0.07852686
52	0xbd0418a8	-0.032250077
53	0x3de989a7	0.11403208
54	0xbcd4937c	-0.025949232
55	0xbe09cc86	-0.13456926
56	0xbdd96d3a	-0.106165364
57	0x3d72745d	0.059193004
58	0xbc1b6191	-0.009483711
59	0xbd93f622	-0.072246805
60	0xbdbd5137	-0.09244006
61	0xbd09ff37	-0.033690657
62	0x3d0f0022	0.034912236
63	0xbdad6a46	-0.08467536
64	0x3d7d6e06	0.061872505
65	0xbd4450d3	-0.047928642
66	0xbdb9f0c0	-0.090791225
67	0xbcfca55f	-0.030840574
68	0x3db9b576	0.09067814
69	0x3a9a3863	0.0011766072
70	0x3cd687c2	0.026187781
71	0xbd873e29	-0.06603653
72	0xbc9492dc	-0.018136434
73	0xbd99b207	-0.07504659
74	0x3cc644d0	0.024202734
75	0xbdccfa10	-0.10008633
76	0xbdc07120	-0.09396577
77	0x3c57e440	0.013176978
78	0xbdee6de0	-0.11642051
79	0xbdbbf0c8	-0.09176785
80	0x3d8a71e3	0.067600034
81	0x3d6eff64	0.05834903
82	0x3d94cbca	0.07265432
83	0x3ccb430f	0.02481225
84	0x3dff0d64	0.12453726
85	0x3cee7ac1	0.029111268
86	0xbdce9fb3	-0.10089054
87	0xbd3faa83	-0.046793472
88	0xbd5a674d	-0.05332117
89	0x3db92e69	0.09042055
90	0x3d607641	0.054800276
91	0xbe1a9351	-0.15095259
92	0xbdd832f4	-0.105565935
93	0x3c86f9ee	0.016476598
94	0x3d21b812	0.039482184
95	0x3d5e47e1	0.054267768
96	0xbe099f5f	-0.13439701
97	0xbcdfa84a	-0.027301926
98	0x3dbb40f8	0.09143251
99	0xbe075852	-0.13217285
100	0x3da0a694	0.07844272
101	0x3dd05ea4	0.10174301
102	0x3dd5326b	0.10410007
103	0x3d7d3707	0.061820056
104	0xbc0aaba6	-0.008463776
105	0x3c0071eb	0.00783966
106	0x3d01031f	0.031497117
107	0xbcd07ee6	-0.025451135
108	0xbdce66d7	-0.10078209
109	0x3dbafee1	0.091306455
110	0x3d30f734	0.0432045
111	0x3d226117	0.039643373
112	0xbdfaa4f4	-0.122384936
113	0xbd1826c4	-0.037146345
114	0x3d07ad87	0.033124473
115	0xbd5ddfdc	-0.054168567
116	0x3c7fa356	0.015602907
117	0x3d446774	0.047950223
118	0xbc3d5bb9	-0.011557513
119	0x3db58436	0.08863108
120	0x3dafc459	0.08582372
121	0x3dabc545	0.083872356
122	0x3c870ac5	0.016484628
123	0xbd12ccdd	-0.035839904
124	0xbe39f384	-0.181593
125	0x3d29b3ad	0.041431118
126	0x3cf38dd8	0.029730722
127	0x3c01c96c	0.007921558

actor_fc3.weight f4 [256, 128]
0	0x3d848e5b	0.06472465
1	0xbd62d363	-0.055377375
2	0xbbfbf439	-0.0076890257
3	0xbcc9310f	-0.024559526
4	0x3dadd746	0.08488326
5	0xbd109ff8	-0.035308808
6	0x3da12b94	0.0786964
7	0x3ddb477e	0.107069954
8	0xbcac72b9	-0.021050798
9	0x3e1d9925	0.15390451
10	0xbbba81ad	-0.005691728
11	0xbda224f2	-0.07917203
12	0xbcd296e8	-0.025706723
13	0xbdf8f6d6	-0.12156455
14	0xbc35056f	-0.011048659
15	0x3d65dcf1	0.05611891
16	0xbd2afbbe	-0.041743986
17	0x3d76a3d7	0.060214844
18	0xbe0db011	-0.13836695
19	0xbdc1920a	-0.09451683
20	0x3d7db1f3	0.061937284
21	0x3caafa36	0.020871263
22	0x3da62ee1	0.0811441
23	0xbbbfb844	-0.0058508236
24	0xbce28497	-0.027651114
25	0x3d45fad3	0.048334908
26	0x3e238f09	0.15972532
27	0xbd530faf	-0.05152863
28	0x3ced3430	0.028955549
29	0xbd27722a	-0.04088036
30	0x3d9c74b8	0.0763945
31	0xbc30023a	-0.010742718
32	0xbe040817	-0.12893711
33	0x3da6caae	0.08144127
34	0xbd05c144	-0.032655016
35	0xbd171979	-0.036889527
36	0x3d9010a3	0.07034423
37	0x3c82eab1	0.01598105
38	0xbdaaf893	-0.08348193
39	0xbdad1085	-0.084504165
40	0x3d55ec61	0.05222738
41	0x3d792e7e	0.060835354
42	0xbc5a81a7	-0.013336576
43	0x3dd11da9	0.10210735
44	0x3d8dd955	0.069262184
45	0xbbcfd386	-0.006342354
46	0xbddf12e2	-0.108922735
47	0xbdb4d874	-0.08830348
48	0x3c64bd07	0.013961083
49	0xbbe7565f	-0.007059857
50	0x3dde32ce	0.10849534
51	0xbdb7cdb6	-0.08974783
52	0xbd7a4be5	-0.061107535
53	0xbd134b42	-0.035960443
54	0x3c79acd5	0.01523896
55	0xbc50476a	-0.012712339
56	0xbdde173f	-0.108442776
57	0x3d426e54	0.0474685
58	0x3c823e21	0.015898766
59	0xbd4517bb	-0.048118334
60	0x3e17cd2e	0.14824364
61	0xbb226bf4	-0.0024783583
62	0x3dde6d46	0.10860686
63	0xbdf8b1ba	-0.12143274
64	0xbc75f2e1	-0.01501152
65	0xbd6c0c4c	-0.057628915
66	0xbd6f9c0d	-0.05849843
67	0xbdb93f85	-0.090453185
68	0x3c49b90b	0.012312184
69	0x3d15e3b9	0.036594126
70	0x3cd44063	0.025909608
71	0xbc9fb190	-0.019493848
72	0x3d99979c	0.0749962
73	0x3d733dd2	0.05938513
74	0xbd5f449e	-0.054508798
75	0xbd664f2c	-0.056227848
76	0x3d58b1a2	0.05290378
77	0x3e04feba	0.12987795
78	0xbdb4b9f8	-0.08824533
79	0xbd18915f	-0.03724801
80	0x3d08c068	0.033386618
81	0x3c937777	0.018001301
82	0x3cc936ce	0.024562266
83	0xbd3481b7	-0.04406902
84	0xbd93e7b4	-0.07221928
85	0x3d079efa	0.033110596
86	0xbd7367b0	-0.059425056
87	0x3a81e219	0.0009909301
88	0x39ee0981	0.00045401978
89	0x3c36bb54	0.011153061
90	0xbd258c75	-0.040417153
91	0xbd82cf8a	-0.06387241
92	0xbd7b39cd	-0.06133442
93	0xbd528dce	-0.051404767
94	0xbb5e1332	-0.0033885953
95	0xbdc7b34b	-0.09750994
96	0xbd67c303	-0.056582462
97	0xbd54f7ed	-0.051994253
98	0xbda728a6	-0.0816205
99	0xbc3b9592	-0.011449235
100	0xbdcdbfd4	-0.10046354
101	0xbd7a95e9	-0.06117812
102	0xbcfc6512	-0.030809913
103	0xbdd11247	-0.10208564
104	0x3da80872	0.08204736
105	0xbd57e351	-0.05270702
106	0x3cb5d145	0.022194514
107	0xbd12fe44	-0.035887018
108	0x3d326fef	0.04356378
109	0x3b9b1bd9	0.0047335443
110	0x3db6d64a	0.08927591
111	0x3cdfb381	0.027307274
112	0xbd5b39d4	-0.053521946
113	0x3cc51a22	0.024060313
114	0xbd176ca8	-0.036968857
115	0x3ca63a6a	0.020291526
116	0xbc9bfbdd	-0.019040996
117	0x3cfb5d3f	0.030684112
118	0x3cb5e4bb	0.022203794
119	0xbdbdfbb6	-0.09276526
120	0x3d58274f	0.052771863
121	0x3ca73567	0.020411206
122	0xb99e168f	-0.00030152916
123	0xbd09782c	-0.03356187
124	0xbd3e30c3	-0.04643322
125	0x3e212859	0.15738048
126	0x3c5d5bf0	0.013510689
127	0xbd6e239e	-0.058139436
128	0xbd548cf8	-0.05189225
129	0xbd91a1f0	-0.07110965
130	0xbcc4d666	-0.024028014
131	0xbdb902f3	-0.09033766
132	0xbd2ee4d4	-0.042698696
133	0x3d38acec	0.045086786
134	0xbdd477dc	-0.10374424
135	0xbd908fa0	-0.07058644
136	0xbd00f656	-0.031484924
137	0xbb7f4c82	-0.0038955514
138	0x3d5699a8	0.05239263
139	0x3d09fbf3	0.033687543
140	0x3d3b05f9	0.045659993
141	0xbcffb56b	-0.031214437
142	0x3d0caa67	0.034342196
143	0xbd8b9ff0	-0.06817615
144	0xbdb60fce	-0.08889733
145	0xbcb66235	-0.022263626
146	0xbdc76908	-0.0973683
147	0xbd99ec66	-0.075157925
148	0xbcce1b3b	-0.025159469
149	0x3d38c80d	0.04511266
150	0xbce6f21c	-0.028191619
151	0xbd6d6d49	-0.05796555
152	0xbcbdff97	-0.023193164
153	0xbd80efe9	-0.06295759
154	0x3b265898	0.0025382396
155	0xbd8a627b	-0.06757065
156	0xbd3366dd	-0.04379927
157	0xbd3109be	-0.04322218
158	0x3d51f04b	0.05125455
159	0xbd51dc07	-0.051235225
160	0xbcab591c	-0.020916514
161	0xbd873ead	-0.06603751
162	0xbdb7f549	-0.08982331
163	0xbc4ec05c	-0.012619104
164	0x3d888d5d	0.06667588
165	0xbda1fb00	-0.079092026
166	0xbc96b75a	-0.018397976
167	0x3cb3d76d	0.021953309
168	0x3d707050	0.05870086
169	0xbd54aa13	-0.051920008
170	0xbc298a69	-0.010347941
171	0x3d72b192	0.059251375
172	0x3d94592d	0.072435714
173	0x3d09b210	0.03361708
174	0x3d893c0b	0.067009054
175	0x3ca128d8	0.019672796
176	0x3d95c959	0.07313795
177	0xbd9bca6b	-0.076069675
178	0x3d86fc59	0.065911
179	0xbd6229b4	-0.055215552
180	0xbda2e340	-0.07953501
181	0xbd52259b	-0.051305395
182	0x3b5b76b9	0.0033487512
183	0x3d240b6a	0.040049948
184	0x3bbfd758	0.0058545284
185	0x3d92d0cc	0.07168731
186	0xbdbaa3b7	-0.091132574
187	0xbd919125	-0.07107762
188	0xbd3e5175	-0.046464402
189	0x3d0487e9	0.032356177
190	0x3db359f6	0.08757393
191	0xbdb54160	-0.0885036
192	0xbd3e49bf	-0.04645705
193	0xbcb64fa7	-0.022254778
194	0x3d74c709	0.059760127
195	0xbc8144f8	-0.015779957
196	0xbc781273	-0.015141117
197	0x3cd4b29d	0.025964076
198	0x3d61dd73	0.05514283
199	0x3cf16e13	0.029471433
200	0x3d5c00bd	0.05371164
201	0xbd953f8d	-0.07287512
202	0x3d507ae9	0.050898466
203	0x3c005bb0	0.00783436
204	0xbc07d4fb	-0.008290525
205	0x3d15f07c	0.036606297
206	0xbd9ad014	-0.07559219
207	0xbd21fe9a	-0.039549448
208	0xbc02496e	-0.007952077
209	0x3b820163	0.0039674505
210	0xbca7451b	-0.020418694
211	0xbd72f188	-0.059312373
212	0xbd8710aa	-0.06594975
213	0x3d9db078	0.07699674
214	0x3d14af8f	0.03630024
215	0x3d2240be	0.039612524
216	0x3d1b014e	0.03784304
217	0xbd7232ec	-0.059130594
218	0x3d85f5f8	0.065410554
219	0xbd89018a	-0.06689747
220	0xbd449200	-0.0479908
221	0xbd093bb8	-0.033504218
222	0x3cc7c52a	0.024386007
223	0xbd8e1908	-0.06938368
224	0x3bb9e94c	0.005673563
225	0xbd40d5b1	-0.047078792
226	0xbd94bfa2	-0.072631136
227	0x3d63a2f6	0.055575334
228	0xbd97842a	-0.07398255
229	0xbda2c3ae	-0.07947479
230	0x3d8717c8	0.06596333
231	0xbd9c8b93	-0.07643809
232	0x3cd386d2	0.025821123
233	0xbd723bea	-0.05913917
234	0xbcb84749	-0.022494929
235	0x3c366b82	0.01113403
236	0xbc9d19d1	-0.01917735
237	0x3da2d940	0.079515934
238	0xbcc91582	-0.024546389
239	0x3c11968a	0.008885989
240	0xbd2749b3	-0.04084177
241	0xbcc05d9f	-0.023482142
242	0xbd254b44	-0.040354982
243	0xbd4fd3b8	-0.05073902
244	0xbcef64ce	-0.029222872
245	0x3d858086	0.065186545
246	0x3db00836	0.08595316
247	0x3b3b5b8a	0.0028588497
248	0xbc436958	-0.011926971
249	0x3c9b335a	0.018945385
250	0xbc96bcb3	-0.018400526
251	0xbd3c27be	-0.04593634
252	0xbd3672a8	-0.04454294
253	0xbca65483	-0.02030397
254	0xbd0589c7	-0.032602098
255	0x3c57252a	0.013131419

actor_fc3.bias f4 [256]
0	0xbb545c30	-0.003240358
1	0xbd25f929	-0.04052082
2	0x3d01c4c1	0.03168178
3	0x3d3f4f54	0.046706513
4	0x3d8b01af	0.067874305
5	0x3d30e90c	0.043191
6	0x3d75c436	0.060001574
7	0x3cec4921	0.028843464
8	0xbc04e358	-0.008110844
9	0xbde72349	-0.11286027
10	0x3d03babb	0.032160502
11	0xbca402e8	-0.020020917
12	0x3ba26451	0.0049558063
13	0xbc1bbe65	-0.009505843
14	0xbb220a0d	-0.002472523
15	0x3dd90c8d	0.10598097
16	0xbd49035d	-0.049075473
17	0x3d3b6fa7	0.045760777
18	0x3d465544	0.04842116
19	0x3cde5550	0.02714029
20	0xbc2453bd	-0.01002973
21	0x3c8788eb	0.01654478
22	0x3c5398c8	0.012914844
23	0x3d6deaaa	0.05808512
24	0xbd9c0a8f	-0.076192014
25	0x3de9117e	0.113802895
26	0x3c0b579c	0.008504774
27	0xbd8208fe	-0.063493714
28	0xbdc47d28	-0.09594184
29	0x3d7b5a3e	0.06136536
30	0x3db324e8	0.08747274
31	0xbaf7dc52	-0.0018910265
32	0xbd708adb	-0.058726173
33	0x3dc1c82c	0.09462008
34	0x3d5772ee	0.05259984
35	0x3da5afd0	0.08090174
36	0x3c49b717	0.012311718
37	0xbd9fd0c4	-0.07803491
38	0xbd900712	-0.070325986
39	0x3d92caa5	0.071675576
40	0xbd2cf39a	-0.042224504
41	0x3b13b6aa	0.0022539296
42	0xbc82490c	-0.015903972
43	0xbd3a3dab	-0.045468967
44	0x3d800185	0.0625029
45	0x3db1d5d2	0.08683361
46	0x3dde18ec	0.10844597
47	0xbcf954ab	-0.03043588
48	0x3d8795e8	0.06620389
49	0x3dc7eab2	0.097615615
50	0xbdcd9015	-0.10037247
51	0x3c9426dd	0.018084938
52	0xbca12686	-0.01967169
53	0xbd592f87	-0.05302384
54	0xbda47cbf	-0.08031606
55	0xbd6881c5	-0.056764383
56	0x3de77a1a	0.11302586
57	0x3d843fbd	0.064574696
58	0xbdb445bb	-0.088023625
59	0x3d49af15	0.049239237
60	0xbd44da1b	-0.048059564
61	0x3d87c0eb	0.06628593
62	0x3db9d244	0.09073308
63	0x3d48897b	0.048959237
64	0x3d729013	0.05921943
65	0x3dbf51ee	0.09341799
66	0xbde1a49b	-0.11017724
67	0x3d930e04	0.07180408
68	0xbd2d7236	-0.04234525
69	0x3d203a7e	0.039118282
70	0x3cff04c3	0.0311302
71	0x3cbbf5fa	0.02294444
72	0x3d22bd06	0.039731048
73	0x3c28d788	0.010305293
74	0x3d844b19	0.06459636
75	0x3db02e8a	0.086026266
76	0xbd9c84f4	-0.07642546
77	0x3d2ee794	0.04270132
78	0x3dbc4f45	0.09194807
79	0x3d75bffe	0.05999755
80	0x3dbd3e0c	0.0924035
81	0xbc03ff8c	-0.008056533
82	0x3d9bc19d	0.07605288
83	0xbca7357c	-0.020411246
84	0x3ced0102	0.028931145
85	0x3bdefa24	0.0068047214
86	0x3cebc54f	0.028780608
87	0xbdd3e7f7	-0.10346978
88	0xbd847cdc	-0.064691275
89	0xbd276f87	-0.040877845
90	0xbdab66e4	-0.08369234
91	0x3cfe2c06	0.031026851
92	0xbc12670a	-0.008935699
93	0x3dedd29d	0.11612437
94	0xbca831a8	-0.02053149
95	0x3d79ac1a	0.060955144
96	0x3c8b5608	0.017008796
97	0x3de92c3e	0.11385392
98	0x3d8fb95e	0.07017778
99	0x3cbbb032	0.022911165
100	0xbd9fb0ca	-0.07797392
101	0xbcad5495	-0.021158496
102	0xbd870952	-0.065935746
103	0xb86049bf	-5.3474443e-05
104	0x3dadb553	0.084818505
105	0xbde96fdd	-0.11398289
106	0xbd442c86	-0.047894023
107	0xbbc775b4	-0.0060870294
108	0xbb3a8473	-0.0028460294
109	0xbd5cdba7	-0.053920414
110	0xbdecdc32	-0.115654364
111	0x3e09849f	0.13429497
112	0xbc886c52	-0.016653214
113	0x3d95e580	0.07319164
114	0xbc728ff7	-0.014804832
115	0x3d972150	0.07379401
116	0x3ce6997d	0.02814936
117	0x3dc8b39d	0.097998835
118	0xbdba68b7	-0.09102004
119	0xbcc59c57	-0.0241224
120	0xbd88c41a	-0.066780284
121	0x3de2dc77	0.110772066
122	0xbcef9afe	-0.02924871
123	0xbd04b007	-0.032394435
124	0xbd75b9e5	-0.059991736
125	0x3d5ab346	0.053393625
126	0x3d846b18	0.06465739
127	0x3d73a237	0.059480872
128	0xbdc1045b	-0.09424659
129	0xbd5f8317	-0.054568376
130	0x3d9736c6	0.07383494
131	0x3c15d821	0.009145767
132	0xbdec9c83	-0.1155329
133	0xbd682103	-0.056672107
134	0x3db47ac5	0.08812479
135	0xbdce3c2f	-0.10070073
136	0xbcb22638	-0.02174674
137	0xbd5483d6	-0.05188354
138	0x3d4fae5b	0.050703388
139	0xbd05e07b	-0.032684784
140	0xbc0ec480	-0.008713841
141	0xbd07a068	-0.03311196
142	0xbce25646	-0.027629029
143	0x3dad75bb	0.08469721
144	0xbd316ad8	-0.043314785
145	0xbb8d2695	-0.004307578
146	0x3dc33db3	0.095332526
147	0xbd4dc8e1	-0.0502404
148	0xbda53f6f	-0.080687396
149	0xbd913ba2	-0.07091452
150	0x3d648831	0.055793945
151	0x3d3477d4	0.04405959
152	0x3dbeed66	0.09322624
153	0xbbbf2556	-0.005833308
154	0xbc061061	-0.008182616
155	0x3d986789	0.07441623
156	0x3c92d26c	0.017922603
157	0x3b077cc5	0.0020673734
158	0xbd25b08f	-0.040451583
159	0xbdca4610	-0.098766446
160	0x3d24bf0d	0.040221263
161	0xbd5461a3	-0.051850926
162	0x3d0f9844	0.03505732
163	0xbd9b16fb	-0.075727426
164	0x3de2b2c2	0.110692516
165	0xbdac2cdf	-0.08406996
166	0xbbd70f5e	-0.006563111
167	0x3c600303	0.013672593
168	0x3d465838	0.048423976
169	0xbcffd65e	-0.031230148
170	0x3b9ad8aa	0.0047255354
171	0xbc37348c	-0.011181962
172	0xbd92b78a	-0.071639135
173	0xbda68539	-0.08130879
174	0x3cae099b	0.021244815
175	0xbcf03650	-0.029322773
176	0xbdae677f	-0.08515834
177	0x3db8b850	0.0901953
178	0x3d98ed85	0.07467178
179	0xbcb882ec	-0.022523366
180	0x3d07e596	0.033177935
181	0x3d9831f6	0.07431404
182	0xbd3b92d9	-0.04579434
183	0xbcdea6d4	-0.02717916
184	0xbc3037e7	-0.010755516
185	0x3ce8822a	0.02838238
186	0xbd8ce15b	-0.06878921
187	0xbdab2928	-0.08357459
188	0xbc115a49	-0.008871623
189	0xbd5f939c	-0.05458413
190	0x3cf4b427	0.02987106
191	0x3d0df7ec	0.034660265
192	0x3bacf847	0.0052786204
193	0x3d47ff52	0.048827477
194	0x3d8b192b	0.0679191
195	0x3d5eacaa	0.054363884
196	0xbc4a6525	-0.012353216
197	0x3d939ab3	0.07207241
198	0x3dfc257b	0.12311836
199	0xbdd5e8bb	-0.104447804
200	0xbbecef95	-0.007230709
201	0xbcd301b1	-0.025757642
202	0x3ca950f4	0.020668484
203	0xbdcd88af	-0.10035836
204	0xbda3eaed	-0.08003793
205	0x3ca72e2e	0.020407762
206	0x3c98bf7d	0.018645996
207	0x3da1e5c6	0.07905154
208	0xbd18cdbd	-0.037305582
209	0x3c873f63	0.016509717
210	0xbd3f48bd	-0.046700228
211	0x3cc1b5b3	0.023646211
212	0x3c98ddcb	0.018660447
213	0xbccb59a9	-0.024823027
214	0x3d4e2b63	0.050334346
215	0x3d5b38e6	0.05352106
216	0x3de58eff	0.11208915
217	0x3d011876	0.03151747
218	0x3da2fe1e	0.07958625
219	0x3d03a64b	0.03214101
220	0x3d12c25b	0.035829883
221	0x3d171f14	0.036894873
222	0xbd1cca31	-0.038278762
223	0xbb1b0bc3	-0.0023658134
224	0xbd6d0b26	-0.05787196
225	0xbc5fd97e	-0.013662694
226	0xbdf6de35	-0.120541014
227	0xbd16e949	-0.03684357
228	0x3b5403fd	0.003235101
229	0x3c048ccc	0.008090209
230	0x3c865286	0.016396772
231	0x3d21f312	0.03953845
232	0x3be7e5e2	0.0070769647
233	0x3ba886ae	0.005143008
234	0xbc5bc8bf	-0.013414561
235	0x3d07927e	0.03309869
236	0x3c327f4f	0.010894611
237	0x3d43b9f8	0.047784775
238	0xbc169a55	-0.009192069
239	0x3c92ef80	0.017936468
240	0x3dd0d617	0.101970844
241	0xbc89841f	-0.016786633
242	0xbd452872	-0.048134275
243	0x3cbdf3b6	0.0231875
244	0xbd05471d	-0.032538522
245	0x3ddee6a1	0.10883833
246	0x3da84db5	0.082179464
247	0xbd0082df	-0.03137481
248	0x3dd2561a	0.10270329
249	0xbd85b1cc	-0.06528053
250	0xbd415804	-0.04720308
251	0x3d154ff5	0.036453206
252	0xbd394692	-0.045233317
253	0xbcfd8007	-0.030944837
254	0xbd41a5bf	-0.04727721
255	0x3d061cc4	0.032742277

actor_fc4.weight f4 [4, 256]
0	0x3c8da914	0.017292537
1	0x3c5f0c58	0.013613783
2	0xbc602ca9	-0.013682523
3	0xbd368689	-0.044561896
4	0x3dae2b66	0.08504371
5	0x3da03dcc	0.07824287
6	0xbd979922	-0.07402255
7	0xbdabdfe6	-0.083923146
8	0x3d7f30a6	0.062302254
9	0x3bf99076	0.007616098
10	0x3c195f37	0.00936108
11	0xbd20d40e	-0.03926473
12	0xbd9f18bc	-0.077683896
13	0x3d160acb	0.036631387
14	0x3c4963bc	0.012291845
15	0xbd65da5b	-0.056116443
16	0xbd4bb279	-0.04973075
17	0x3beb9983	0.007189931
18	0xbc9422c0	-0.018082976
19	0xbe07c182	-0.13257411
20	0x3c37ae10	0.011210933
21	0xbcdd0805	-0.026981363
22	0xbdf9cefa	-0.12197681
23	0x3d08daaf	0.033411678
24	0xbce937d1	-0.028468998
25	0xbdc71b12	-0.0972196
26	0xbdae651d	-0.085153796
27	0xbcfd6e17	-0.030936284
28	0x3cd765c7	0.026293648
29	0xbda82c8a	-0.0821162
30	0xbbc389d6	-0.005967359
31	0x3d860a10	0.06544888
32	0x3d93c90c	0.07216081
33	0x3e20bae7	0.15696298
34	0x3d34947d	0.044086922
35	0xbe25c201	-0.16187288
36	0xbd9ff85a	-0.07811041
37	0x3dc373ef	0.09543597
38	0xbdb52d48	-0.08846527
39	0xbd38afc2	-0.04508949
40	0xbde2c8bb	-0.110734425
41	0x3d89f153	0.06735482
42	0x3c9bdd85	0.019026527
43	0x3d51b913	0.05120189
44	0x3a1e8cd3	0.0006048206
45	0x3dfef091	0.12448228
46	0x3da218fa	0.0791492
47	0xbd8d1cab	-0.068902336
48	0xbdbdc02f	-0.09265172
49	0x3df81236	0.121128485
50	0xbce20893	-0.02759198
51	0xbdf1c166	-0.11804466
52	0x3c82f9f3	0.015988326
53	0xbd73831f	-0.05945122
54	0xbc4fc91a	-0.012682224
55	0x3bb4c517	0.005516659
56	0x3ce05092	0.027382169
57	0x3ce3c99b	0.027806094
58	0xbd2fea93	-0.042948317
59	0x3ce79b2e	0.028272238
60	0xbc830ddd	-0.015997821
61	0x3dcd04af	0.10010659
62	0x3c34c4ed	0.011033279
63	0x3d9963f6	0.07489769
64	0xbc56e646	-0.013116425
65	0xbd3718d0	-0.044701397
66	0xbda5f694	-0.08103672
67	0xbd8e4872	-0.069474116
68	0xbaf40c58	-0.0018619401
69	0x3c54d967	0.012991286
70	0xbd2e9d57	-0.04263052
71	0x3dbcbc53	0.092156075
72	0xbc6033d2	-0.01368423
73	0xbdce13a1	-0.10062338
74	0xbdcae59e	-0.09907077
75	0xbd1e9481	-0.038715843
76	0xbc91ed20	-0.017813265
77	0xbd1393f4	-0.03602977
78	0xbdd868cd	-0.10566864
79	0x3dc2ac45	0.09505514
80	0x3d9087bd	0.0705714
81	0xbdf8ed38	-0.12154621
82	0xbde89abf	-0.113576405
83	0xbd20e341	-0.039279226
84	0xbd8e913f	-0.06961297
85	0xbd79bc19	-0.0609704
86	0xbca6be77	-0.020354493
87	0x3d1ec2a4	0.038759843
88	0x3c9e88af	0.019352285
89	0xbdb3fa96	-0.0878803
90	0xbcd576c2	-0.026057605
91	0xbbee878b	-0.0072793416
92	0x3d88430d	0.06653414
93	0xbdaceb8c	-0.084433645
94	0xbd4e31e2	-0.05034054
95	0xbd5bc66a	-0.05365602
96	0x3cdde61b	0.027087262
97	0xbd9e99f0	-0.07744205
98	0xbd1bba39	-0.038019393
99	0x3dfdacab	0.123864494
100	0x3d3c93af	0.04603928
101	0xbcd97b9e	-0.026548203
102	0xbd68f690	-0.056875765
103	0xbd4f8372	-0.050662465
104	0x3d1c92c4	0.038225904
105	0x3b9c3dce	0.00476811
106	0xbc3affe5	-0.011413549
107	0xbd0e8e17	-0.034803476
108	0xbcb7b37c	-0.022424452
109	0xbc17d55c	-0.009267177
110	0xbc7e2d87	-0.015513784
111	0xbcc082cb	-0.023499867
112	0x3ddfb593	0.109233044
113	0x37be0285	2.2650938e-05
114	0x3cc94b2d	0.02457198
115	0xbcf8748a	-0.030329008
116	0xbcd9cc80	-0.026586771
117	0x3c288117	0.010284684
118	0x3ceb5cbe	0.028730746
119	0xbd4cda48	-0.050012857
120	0x3b0a8725	0.0021137681
121	0xbcc48b67	-0.023992253
122	0x3c84f262	0.016228858
123	0xbd4a1a90	-0.04934174
124	0xbc216bed	-0.009852392
125	0x3a50e8e6	0.0007969275
126	0x3d1f35b4	0.038869575
127	0xbdb55512	-0.088541165
128	0x3c96c71e	0.018405493
129	0xbc414c40	-0.011797965
130	0xbe16fe9f	-0.14745568
131	0x3dd61b3a	0.10454412
132	0x3dc1bea3	0.09460189
133	0x3cdae045	0.026718268
134	0x3d87d01c	0.066314906
135	0xbd33c6fa	-0.04389093
136	0x3da51dd7	0.08062332
137	0xbd4c86f7	-0.0499334
138	0x3ceed44c	0.029153965
139	0xbd66ba39	-0.05632994
140	0x3d6935df	0.05693614
141	0x3cc26060	0.023727596
142	0xbb8f953b	-0.0043818033
143	0x3d0f7b59	0.035029743
144	0x3d18335e	0.037158363
145	0x3d7da981	0.06192923
146	0x3d86cdf4	0.06582251
147	0xbd6f1931	-0.058373634
148	0x3d428fdc	0.047500476
149	0x3bec41dd	0.00721
150	0xbd870f93	-0.065947674
151	0x3d490573	0.049077462
152	0xbcdc0132	-0.026856039
153	0xbd0549ca	-0.032541074
154	0x3dfe83a1	0.1242745
155	0xbc85e5f3	-0.016345
156	0xbd47add9	-0.04874978
157	0xbcddce17	-0.02707581
158	0xbde0d54d	-0.10978184
159	0xbcb18c4c	-0.021673344
160	0x3d8227f9	0.063552804
161	0x3d51e7c1	0.05124641
162	0x3c83f808	0.016109481
163	0x3c69023a	0.014221722
164	0xbe45b1e9	-0.19306149
165	0xbc80219c	-0.015641026
166	0xbce8737e	-0.028375383
167	0x3d24d16c	0.040238783
168	0xbcd82b27	-0.026387764
169	0x3ce01ca1	0.027357401
170	0x3dcd53a0	0.10025716
171	0x3ccb2156	0.02479617
172	0x3ddb8886	0.10719399
173	0x3ca2656a	0.019823749
174	0x3c0566cc	0.0081421845
175	0xbdce4b2b	-0.10072931
176	0x3c1e03b1	0.009644435
177	0x3d81fbf7	0.063468866
178	0xbd39aa83	-0.04532863
179	0xbdc3c503	-0.095590614
180	0x3c5ddf01	0.013541938
181	0x3d87a499	0.066231914
182	0x3dfef0b3	0.124482535
183	0xbc98dd3a	-0.018660177
184	0x3c9b3e12	0.018950496
185	0x3da6e6f6	0.08149521
186	0xbcbb90e6	-0.022896241
187	0xbcd11094	-0.0255206
188	0x3da14485	0.07874397
189	0x3d225796	0.03963431
190	0xbd89db5e	-0.06731294
191	0x3d863790	0.065535665
192	0x3d24f609	0.0402737
193	0xbc3d58be	-0.011556802
194	0xbdb377b2	-0.087630644
195	0xbdc170c8	-0.094453394
196	0xbd157daf	-0.036496814
197	0x3d24b031	0.04020709
198	0xbc63a03d	-0.013893184
199	0xbd41d8de	-0.04732596
200	0xbd2e3b3f	-0.04253697
201	0xbd6fddaf	-0.058561023
202	0x3baf9adc	0.005359037
203	0x3d826fc9	0.063689776
204	0x3c38455d	0.011247006
205	0x3d6ba9b3	0.057534885
206	0x3c9b367f	0.018946884
207	0xbd490cf6	-0.049084626
208	0xbb63a8b2	-0.0034738001
209	0xbd56951f	-0.052388307
210	0xbd516295	-0.051119406
211	0x3d813b74	0.06310168
212	0x3e0b473a	0.1360139
213	0x3c5db5e7	0.013532138
214	0xbd895a00	-0.06706619
215	0xbd3bf4e8	-0.045887858
216	0x3d793b99	0.060847852
217	0xbda271fc	-0.07931897
218	0xbc8f51c7	-0.01749505
219	0x3e04372a	0.12911668
220	0xbc964b84	-0.018346556
221	0xbd51259c	-0.051061258
222	0x3dfd971f	0.1238234
223	0xbc445c7e	-0.0119849425
224	0x3ce48a01	0.027897837
225	0x3b8bbbb9	0.0042643216
226	0x3d01773b	0.031607848
227	0xbca9b76c	-0.020717345
228	0xbd8ab76b	-0.067732655
229	0xbd3c5b4a	-0.045985498
230	0xbca8f6a4	-0.02062542
231	0x3dc1c2bb	0.0946097
232	0xbd028772	-0.031867452
233	0xbdb1fd86	-0.08690934
234	0x3ceddbba	0.029035438
235	0xbdc26977	-0.09492772
236	0xbd827c13	-0.063713215
237	0x3d542e21	0.051801804
238	0xbdcf38d5	-0.10118262
239	0xbd06ff87	-0.032958534
240	0xbdae55d5	-0.08512465
241	0xbd1325e1	-0.035924796
242	0xbd8caeb6	-0.06869261
243	0x3dae7ba2	0.08519675
244	0x3c86a4af	0.01643595
245	0xbd1673cf	-0.036731537
246	0x3bbcb873	0.0057592927
247	0xbd7d2ab5	-0.061808307
248	0x3cfde6bd	0.030993814
249	0x3d81791e	0.063219294
250	0xbd7d8b5a	-0.061900474
251	0xbddda1d1	-0.1082188
252	0x3cacd94c	0.021099709
253	0xbd92c81c	-0.07167074
254	0x3d29f8f3	0.041497182
255	0x3cf435db	0.029810837

actor_fc4.bias f4 [4]
0	0x3ab65ae6	0.0013912588
1	0x3d12a104	0.035798088
2	0xbdb130fb	-0.086519204
3	0xbd91807a	-0.07104583

critic_fc1.weight f4 [64, 33]
0	0x3e031f92	0.12805012
1	0xbdf1606b	-0.117859684
2	0x3b8f8a8c	0.0043805297
3	0xbe0df81a	-0.13864174
4	0xbcd1f6ea	-0.025630433
5	0xbd7bacfc	-0.061444268
6	0x3deacddf	0.11465048
7	0xbdab5752	-0.083662644
8	0x3e025567	0.12727891
9	0x3d8be3d1	0.06830562
10	0xbd747079	-0.059677575
11	0xbe11b576	-0.14229378
12	0x3c81225a	0.01576345
13	0xbe147b29	-0.14500107
14	0xbd5eb964	-0.05437602
15	0x3da166f2	0.078809634
16	0xbb0dd19d	-0.0021639832
17	0x3de28ddf	0.11062216
18	0xbe1c8327	-0.15284406
19	0x3dcd1ea7	0.10015612
20	0xbca332bf	-0.019921659
21	0x3d1114b9	0.035420153
22	0xbd0cf076	-0.03440901
23	0xbc273e72	-0.010207759
24	0xbd80e5e9	-0.06293852
25	0x3d53642c	0.051609203
26	0xbdc5dd4b	-0.09661349
27	0xbdd39a42	-0.10332157
28	0x3e17e3b2	0.14832953
29	0x3e30dd77	0.17271982
30	0x3dca4372	0.098761454
31	0xbe2968e7	-0.16543923
32	0xbd5632da	-0.05229459
33	0xbd9da519	-0.076975055
34	0x3da58102	0.08081247
35	0x3d9e460d	0.07728205
36	0xbdc11aa8	-0.094289124
37	0xbe1672d6	-0.14692244
38	0x3de5924d	0.11209545
39	0xbe094bd3	-0.13407831
40	0x3cf9e2b9	0.030503618
41	0x3e4c3bfb	0.19944756
42	0xbdfc1b77	-0.12309926
43	0x3e289740	0.16463947
44	0x3ddc4063	0.10754468
45	0xbdb91939	-0.09038014
46	0xbdc61be0	-0.096732855
47	0x3e419732	0.18905333
48	0xbd5a95d2	-0.053365536
49	0x3e0000c4	0.12500292
50	0x3d1598a4	0.036522523
51	0x3d38731a	0.045031644
52	0xbd19c6ed	-0.037543226
53	0x3d8064c0	0.062692165
54	0x3d394d6c	0.04523985
55	0x3bc755e3	0.0060832365
56	0xbd4500d7	-0.048096504
57	0x3d88e5d8	0.06684464
58	0xbcfd2a32	-0.03090391
59	0x3bf7d982	0.0075637707
60	0xbd4c369b	-0.049856763
61	0x3da9ff3f	0.083006375
62	0xbda8e138	-0.08246082
63	0x3ce2c28f	0.027680663
64	0x3d0e0619	0.034673784
65	0x3d193e46	0.037412904
66	0xbce7a2d6	-0.028275888
67	0xbdf8a698	-0.1214115
68	0xbc5324ec	-0.012887221
69	0xbc75a041	-0.014991821
70	0xbd079d21	-0.033108834
71	0x3df66d4e	0.12032567
72	0xbe22985c	-0.15878433
73	0xbe395693	-0.18099432
74	0xbcb78a4c	-0.022404812
75	0xbd2b1331	-0.04176635
76	0xbd26085d	-0.04053532
77	0x3d27038a	0.04077486
78	0xbc7b1ade	-0.01532623
79	0x3dd45cc3	0.103692554
80	0x3d6e5ffe	0.058197014
81	0x3e4b2345	0.19837673
82	0xbbdd0cce	-0.006745911
83	0x3c075370	0.008259639
84	0xbc0c5d1c	-0.008567121
85	0xbc11f840	-0.008909285
86	0x3c5d4a10	0.013506427
87	0x3cecd169	0.028908448
88	0xbda4d09e	-0.08047603
89	0x3e02a288	0.12757313
90	0xbd44d705	-0.04805662
91	0x3e5b2b00	0.21403122
92	0x3d10fa31	0.03539485
93	0xbdc8d166	-0.098055646
94	0xbe780921	-0.24222232
95	0x3dccb681	0.09995747
96	0x3e405e6c	0.18786019
97	0x3da29d7d	0.07940195
98	0x3f5cf3cd	0.8630951
99	0xbd566eb8	-0.052351683
100	0xbdb895b7	-0.09012931
101	0xbc724a27	-0.014788187
102	0xbd0ff54c	-0.035146043
103	0x3e59eaa2	0.21280912
104	0x3c4a281c	0.012338664
105	0x3e87c2fe	0.26515955
106	0x3cc333b1	0.02382836
107	0x3dd26c0c	0.102745146
108	0xbe08ee0c	-0.13372058
109	0xbb37cb42	-0.0028044735
110	0xbdf41a0e	-0.11919032
111	0xbc92dc32	-0.017927263
112	0xbd55e80a	-0.052223243
113	0x3e3ee29f	0.18641137
114	0x3b71084b	0.0036778625
115	0x3c663801	0.014051438
116	0x3de0d891	0.10978807
117	0xbdb258d7	-0.08708351
118	0xbddb36ab	-0.107037865
119	0x3d9d98f9	0.07695193
120	0x3d4e07bf	0.050300356
121	0x3db603c4	0.08887437
122	0xbdc728c1	-0.0972457
123	0x3de3bf38	0.111204565
124	0xbd6b364f	-0.05742484
125	0x3cdcd1c2	0.02695549
126	0x3d4ee063	0.05050696
127	0x3c7b8721	0.015352041
128	0x3dc74673	0.09730234
129	0xbd92e59e	-0.07172702
130	0xbe09773c	-0.1342439
131	0x3e3b4f06	0.18291864
132	0xbd8e4296	-0.06946294
133	0x3e37ff44	0.1796847
134	0xbe169b05	-0.14707573
135	0x3cd9a6aa	0.02656873
136	0x3d217588	0.039418727
137	0xbd9ff753	-0.07810845
138	0xbab3dc1f	-0.0013722217
139	0x3c7edc8f	0.015555515
140	0xbca52716	-0.02016024
141	0x3bbf2358	0.0058330707
142	0x3ccc5d1d	0.024946744
143	0xbd0dfc63	-0.034664523
144	0x3dbef007	0.09323125
145	0x3e4b57fe	0.19857785
146	0xbe1b21bf	-0.15149592
147	0x3da0f120	0.07858491
148	0x3dbd3806	0.09239201
149	0x3c845070	0.016151637
150	0xbd03474d	-0.03205042
151	0x3b7ce45f	0.0038588268
152	0xba2776f2	-0.00063882687
153	0x3cd68c4d	0.026189948
154	0xbc996b71	-0.01872799
155	0x3b1208c8	0.0022283066
156	0xbd4d569e	-0.050131433
157	0x3d73bf7d	0.05950879
158	0xbe633d93	-0.22191457
159	0xbdbfb3b5	-0.09360448
160	0x3ce2b454	0.027673878
161	0x3df9370a	0.12168701
162	0x3cad53d0	0.021158129
163	0xbd34d626	-0.04414954
164	0xbf8ec718	-1.1154509
165	0x3e18cca8	0.1492182
166	0xbdee2697	-0.11628454
167	0x3ea1b79b	0.31585392
168	0x3dca9e02	0.09893419
169	0x3e87a829	0.26495484
170	0x3d6fe866	0.05857124
171	0x3c06792e	0.008207602
172	0xbbf4668a	-0.0074585127
173	0xbc9230be	-0.017845508
174	0xbe0491c6	-0.12946233
175	0x3daeb6a9	0.085309334
176	0x3cedc2a0	0.029023468
177	0xbcf7ccb5	-0.03024898
178	0xbdc5a964	-0.09651449
179	0xbcf3901e	-0.029731806
180	0xbc6be481	-0.014397741
181	0x3bc428e6	0.005986321
182	0xbd73283c	-0.059364542
183	0x3de40651	0.11134017
184	0xbe0ca147	-0.13733397
185	0x3cf79754	0.030223526
186	0x3cafc211	0.021454843
187	0xbdea8496	-0.1145107
188	0xbde8ad72	-0.11361207
189	0xbcfdad5a	-0.03096645
190	0xbdce4876	-0.100724146
191	0xbe3835e4	-0.17989308
192	0x3db99226	0.09061079
193	0xbe38d111	-0.18048503
194	0x3dca7711	0.09885991
195	0xbd979fd4	-0.07403532
196	0x3e1b4ea0	0.15166712
197	0xbeb90081	-0.36133197
198	0xbcb1c9b5	-0.021702627
199	0xbc2592b0	-0.010105774
200	0xbd09268b	-0.033484023
201	0xbe550281	-0.20801736
202	0xbcaea269	-0.021317678
203	0xbd97c306	-0.07410245
204	0xbbb77a81	-0.0055993204
205	0xbc742984	-0.014902476
206	0xbe3b3c36	-0.18284687
207	0xbcbf8d3b	-0.023382774
208	0x3c756668	0.014978029
209	0xbce04744	-0.027377732
210	0xbd0e6cb1	-0.034771625
211	0x3da4b5e9	0.08042509
212	0xbdb21e14	-0.08697143
213	0x3dd6ea25	0.10493878
214	0xbd0da8c4	-0.034584776
215	0xbe0c44b0	-0.13698077
216	0xbb8cb2bc	-0.0042937677
217	0x3d681100	0.056656837
218	0x3caa642e	0.020799723
219	0x3ccd6418	0.025072142
220	0x3c76eb54	0.015070755
221	0x3d82c3a0	0.06384969
222	0xbdb2353e	-0.087015614
223	0x3d01a8e4	0.031655207
224	0xbdf546d0	-0.11976397
225	0x3e303d61	0.17210914
226	0xbd8b150e	-0.06791125
227	0xbd4a5286	-0.049395107
228	0xbdc20a71	-0.09474648
229	0xbcc720a4	-0.024307556
230	0x3f43f48e	0.76545036
231	0x3d06fabb	0.03295396
232	0x3da42041	0.080139644
233	0x3e1abcc8	0.15111077
234	0xbe07d1fd	-0.13263698
235	0xbd617de9	-0.055051718
236	0xbddd458b	-0.1080428
237	0x3df816d8	0.12113732
238	0x3c43f101	0.011959315
239	0x3de784be	0.113046154
240	0x3da06929	0.07832558
241	0x3dbd4cfd	0.092432
242	0xbc80d687	-0.015727295
243	0xbbe53ac2	-0.00699553
244	0x3e495202	0.1966019
245	0x3d93c4e4	0.07215288
246	0xbd163b5f	-0.036677714
247	0x3d77af91	0.060470168
248	0x3d97eba6	0.07417993
249	0xbd902829	-0.0703891
250	0x3dcccf40	0.10000467
251	0xbd8664eb	-0.06562217
252	0x3cbe46f8	0.0232272
253	0x3cb4bdc8	0.022063151
254	0x3da98de7	0.08279019
255	0x3db24e0c	0.087062925

critic_fc1.bias f4 [64]
0	0x3e1a954f	0.15096019
1	0xbd33725f	-0.043810245
2	0x3e247b49	0.16062655
3	0xbe5e61de	-0.21717021
4	0xbe0e24e5	-0.13881262
5	0xbd974c0a	-0.0738755
6	0xbcb1e63b	-0.021716228
7	0x3d12948e	0.035786204
8	0x3caace96	0.020850461
9	0x3d650b7f	0.055919167
10	0xbda35552	-0.07975258
11	0x3db6eafa	0.08931537
12	0xbcf13f44	-0.029449113
13	0xbda72a6c	-0.08162388
14	0x3e01cc7d	0.12675662
15	0x3d78e9a6	0.0607697
16	0xbd3e3316	-0.046435438
17	0xbd302728	-0.043006092
18	0xbd8fccfa	-0.07021518
19	0x3de7981a	0.11308308
20	0xbe411f27	-0.1885954
21	0x3d0d1929	0.034447823
22	0x3e2ee11e	0.17078063
23	0xbd4b62e8	-0.04965487
24	0x3d9b4a6e	0.07582556
25	0x3d871500	0.06595802
26	0xbd920ae2	-0.07130982
27	0x3cd8fce1	0.02648777
28	0x3d8c522d	0.06851611
29	0xbe317cff	-0.17332838
30	0x3df463d1	0.11933101
31	0x3e342ab4	0.17594415
32	0xbdb0ddbd	-0.08636043
33	0x3e4103e9	0.18849148
34	0x3e2476a0	0.16060877
35	0xbdf8961a	-0.121380046
36	0xbe51f5e0	-0.2050395
37	0x3e4a7e82	0.19774821
38	0x3e55990b	0.20859163
39	0xbd398fb8	-0.045303077
40	0x3d6dca42	0.058054216
41	0xbe10ec0f	-0.14152549
42	0x3c85439d	0.016267592
43	0xbd6955ce	-0.056966595
44	0xbe4129b4	-0.18863565
45	0xbe15e616	-0.14638552
46	0xbe5a5e3b	-0.21325009
47	0xbe1f13a0	-0.1553483
48	0x3d331c0f	0.04372793
49	0x3df93d0e	0.121698484
50	0xbe2049ff	-0.15653227
51	0x3d94dcba	0.07268663
52	0x3e109bff	0.14122008
53	0xbe080e84	-0.13286787
54	0x3e09191d	0.13388486
55	0xbdd95537	-0.106119566
56	0x3cf9d38b	0.03049638
57	0x3dc36304	0.0954037
58	0x3d22885e	0.03968083
59	0xbe64af9f	-0.22332619
60	0x3dc322ca	0.0952812
61	0x3e1e8432	0.15480116
62	0x3de324e4	0.11091021
63	0x3d7d6fe5	0.06187429
