DDPG/best_model/checkpoint_97.0.pth (torch, 542721 bytes, 6 tensors)

actor_fc1.weight f4 [400, 33]
0.5114793 -0.08780291 0.43652862 -0.15761203 0.37491 0.4170981 0.31304365 0.3673507
-0.20909011 0.18298836 0.16856585 0.22194283 0.020588381 0.35564935 -0.4149172 -0.27797216
0.4153038 0.0072069685 0.09587785 0.03976522 -0.11802927 -0.17344745 -0.08066743 -0.06356762
-0.21405843 -0.17884336 -0.559043 -0.1972085 0.2545885 0.12279807 0.13574581 -0.11668795
1.0619187 -0.22613837 -0.22015512 -0.1734106 0.16262664 0.20976512 0.18822241 0.11559269
-0.19153696 0.17797446 -0.39023626 -0.2417162 -0.060552604 0.021146057 0.3782818 0.106297955
0.36808115 -0.22664708 -0.01709911 -0.21892239 0.21173723 0.051277563 -0.31739226 -0.094582066
0.22519986 -0.023001365 0.369832 -0.47737888 0.3387702 -0.22849461 -0.055251934 -0.18983561
-0.08758435 -1.6134466 -0.928174 -0.22734523 -0.21851678 0.102606155 -0.33048403 -0.07529397
0.08354819 -0.0146491835 0.43412238 -0.025686469 -0.10895185 -0.16167624 -0.15295617 0.838056
-0.10474158 -0.13197024 0.050692137 0.14218792 0.22786267 -0.29570708 0.26254642 -0.23561147
0.102705516 -0.02173923 0.17976631 -0.10001755 -0.29442704 0.034350302 0.19493356 -0.14978991
0.0011225262 -0.12957561 0.67916036 -0.5310699 -0.4439719 0.19341093 -0.0020047033 -0.17672662
-0.15177302 0.5779318 -0.16331275 0.035202235 -0.26213703 -0.4184921 -0.2960506 0.062331907
0.6652849 0.60151315 0.1474525 -0.14325556 -0.06314977 0.15792137 -0.015147452 -0.14329967
-0.46238834 0.5095215 0.023662446 0.2091644 0.103072815 -0.57213515 -0.19411659 -0.07193285
0.1259206 0.10567426 -0.09379089 -0.36008024 0.17317346 0.19764706 0.08215756 -0.14527307
-0.78855854 0.0639743 -0.097841576 0.2052006 0.10206843 -0.6091618 -0.6645183 -0.5174195
0.051482674 0.048168607 0.4531527 -0.61092645 -0.36591423 -0.21256904 0.12948996 0.3009859
0.24913272 0.12749724 -0.26998115 -0.30813703 0.15930273 -0.24659672 0.18532635 0.3166674
0.0070077893 0.070343465 -0.06209114 -0.115834996 0.27809572 0.41072795 0.6564564 -0.38638854
0.1899614 -0.2832876 0.1143314 -0.20532183 -0.6683309 0.26321355 0.30365667 -0.022614472
-0.04567861 -0.0065352716 -0.47756374 0.030941691 0.44053787 -0.24168022 -0.38228124 -0.10326637
-0.020276407 0.30309302 0.27072597 0.340084 0.1860544 -0.3886791 0.25148094 0.48203713
0.16944678 0.2056947 -0.01839472 -0.110690854 0.0011203829 1.0235635 -0.34648016 0.021811133
-0.025042856 -0.17621648 -0.25586352 -0.2629007 0.03579083 -0.50863266 0.16033837 0.08139002
0.20484012 -0.20358905 0.055237796 0.5056039 -0.2541657 0.20133808 -0.18778686 -0.015103637
-0.11701873 0.21312593 -0.4057282 0.025980407 0.59734577 0.14251234 0.008121392 0.05441632
0.27496797 0.4568997 -0.37308317 0.030387258 -0.7527017 0.05524905 0.70989126 -0.40787062
-0.13697511 0.8219525 -0.1654541 0.057098597 -0.18532193 0.9025272 -0.08537415 -0.011711668
-0.07334674 0.24147792 0.19369248 0.32075453 0.29099482 -0.5605035 0.15984693 0.14436099
-0.32472444 0.07521103 0.1912999 -0.09322479 0.053542357 -0.2529303 0.06244741 -0.098235995
00000000: 4ff0 023f 03d2 b3bd ae80 df3e 0c65 21be
00000010: 34f4 bf3e e28d d53e 4247 a03e 6415 bc3e
00000020: b81b 56be 4d61 3b3e 879c 2c3e fb44 633e
00000030: f7a8 a83c ac17 b63e 0770 d4be 5e52 8ebe
00000040: b3a2 d43e 6f28 ec3b 9b5b c43d dbe0 223d
00000050: 54b9 f1bd 359c 31be f734 a5bd be2f 82bd
00000060: 2232 5bbe b722 37be 711d 0fbf 06f1 49be
00000070: 6d59 823e 8e7d fb3d f300 0b3e 18fa eebd
00000080: f4ec 873f d190 67be 5870 61be 8c92 31be
00000090: 9987 263e abcc 563e 60bd 403e dcbb ec3d
000000a0: 4422 44be f03e 363e 0ccd c7be 7484 77be
000000b0: 0206 78bd 7f3a ad3c 27ae c13e beb2 d93d
000000c0: 2275 bc3e 2c16 68be 6f13 8cbc 312d 60be
000000d0: a5d1 583e 6c08 523d 3d81 a2be 3eb4 c1bd
000000e0: cb9a 663e 5c6d bcbc 9f5a bd3e 016b f4be
000000f0: 4a73 ad3e 7efa 69be da4f 62bd 4464 42be
00000100: 6c5f b3bd 6b85 cebf d09c 6dbf 30cd 68be
00000110: ddc2 5fbe 2d23 d23d 3435 a9be ba33 9abd
00000120: 501b ab3d 2103 70bc 4a45 de3e 6e6c d2bc
00000130: 2622 dfbd 758e 25be 8ba0 1cbe d78a 563f
00000140: c182 d6bd 3523 07be 8fa2 4f3d b699 113e
00000150: d554 693e eb66 97be 7c6c 863e 2244 71be
00000160: 4557 d23d 7816 b2bc a914 383e 00d6 ccbd
00000170: 24bf 96be e7b2 0c3d aa9c 473e 8762 19be
00000180: bb21 933a 78af 04be 74dd 2d3f 32f4 07bf
00000190: 4950 e3be 840d 463e 5761 03bb d3f7 34be
000001a0: 636a 1bbe 57f3 133f 753b 27be 3830 103d
000001b0: d336 86be 9944 d6be f293 97be be4f 7f3d
000001c0: 1c50 2a3f c4fc 193f cafd 163e 96b1 12be
000001d0: ab54 81bd 24b6 213e 052d 78bc 26bd 12be
000001e0: 2abe ecbe 0070 023f bfd7 c13c 312f 563e
000001f0: d717 d33d 7377 12bf 80c6 46be 8851 93bd
00000200: 54f1 003e bf6b d83d 7015 c0bd 705c b8be
00000210: 6254 313e fe63 4a3e 3942 a83d 77c2 14be
00000220: f9de 49bf f504 833d 2a61 c8bd 1b20 523e
00000230: 4109 d13d 07f2 1bbf df1d 2abf 9b75 04bf
00000240: 7fdf 523d 724c 453d a103 e83e ad65 1cbf
00000250: 1c59 bbbe b3ab 59be 0499 043e d31a 9a3e
00000260: a61c 7f3e a38e 023e f83a 8abe 23c4 9dbe
00000270: 4120 233e da83 7cbe 31c6 3d3e 3b22 a23e
00000280: 99a1 e53b 3c10 903d 4753 7ebd e63a edbd
00000290: 9062 8e3e ef4a d23e 870d 283f b8d4 c5be
000002a0: 3e85 423e 130b 91be 9526 ea3d e33f 52be
000002b0: bc17 2bbf edc3 863e e378 9b3e fc41 b9bc
000002c0: 7f19 3bbd d525 d6bb 3c83 f4be 6e79 fd3c
000002d0: 2e8e e13e 057b 77be 5eba c3be 527d d3bd
000002e0: b51a a6bc 022f 9b3e 989c 8a3e 7d1f ae3e
000002f0: 0b85 3e3e f200 c7be 1cc2 803e 92cd f63e
00000300: 7583 2d3e a2a1 523e 86b0 96bc e3b1 e2bd
00000310: d0d9 923a 2104 833f d965 b1be 43ad b23c
00000320: ad26 cdbc 1872 34be 8b00 83be ec9a 86be
00000330: 6899 123d c035 02bf be2f 243e d0af a63d
00000340: 9cc1 513e a679 50be 0741 623d 426f 013f
00000350: 0222 82be 922b 4e3e 334b 40be 3f75 77bc
00000360: 84a7 efbd af3d 5a3e 9bbb cfbe ddd4 d43c
00000370: a7eb 183f c1ee 113e 960f 053c a6e3 5e3d
00000380: 9ac8 8c3e c2ee e93e c204 bfbe b3ee f83c
00000390: 0fb1 40bf d44c 623d 6fbb 353f 6bd4 d0be
000003a0: 3443 0cbe 7b6b 523f cd6c 29be 38e0 693d
000003b0: 08c5 3dbe 060c 673f a4d8 aebd 4ce2 3fbc
000003c0: d136 96bd fd45 773e 5257 463e f039 a43e
000003d0: 46fd 943e 287d 0fbf eaae 233e 5ed3 133e
000003e0: 4842 a6be 3e08 9a3d 1fe4 433e a4ec bebd
000003f0: 3b4f 5b3d 1580 81be dbc8 7f3d f42f c9bd

actor_fc1.bias f4 [400]
0.2557656 -0.16933432 0.055882078 0.23655862 -0.31835058 -0.08669484 -0.78235596 -0.3530512
-0.58164537 -0.5345694 -0.068878844 -0.04553632 -0.24186485 0.013820469 -0.45043004 -0.17900503
0.014144934 -0.55153257 -0.0524419 -0.58067864 -0.39739177 -0.62529993 -0.30009547 -0.63128895
-0.13405856 -0.08679007 -0.18123445 0.17012236 -0.43846276 -0.1616132 -0.7616516 -0.3154065
-0.4228838 -0.26838973 -0.0698644 -0.55184555 -0.31848365 -0.62406385 0.13595475 -0.28366563
-0.29408163 -0.70909584 0.03977866 -0.12073045 0.18105492 -0.548164 -0.04470001 -0.35615152
-0.07751412 -0.41288444 -0.3871112 -0.019832559 -0.22076243 -0.2901288 -0.5040155 -0.7350716
-0.14843763 -0.42410448 -0.027776001 -0.15099786 -0.5519944 -0.13144468 -0.55329794 -0.09158702
-0.6713323 -0.057687603 -0.39664653 -0.3154835 -0.41890755 -0.29013133 -0.46082538 -0.29882076
-0.057055887 0.25193104 -0.08379887 -0.09919995 0.03324454 -0.3509349 -0.18620089 -0.22653717
-0.05839343 -0.15674308 -0.36162397 -0.24150047 -0.25073043 -0.47303754 -0.045005824 -0.22579838
-0.354445 -0.6976513 -0.7378654 -0.40908614 0.10242567 -0.3774851 -0.27699685 0.06907304
-0.4627198 -0.36180773 -0.38717663 -0.12235171 -0.59037244 -0.37061727 -0.30984604 -0.41634935
-0.34542742 -0.34921253 -0.52513057 -0.34226236 -0.49984857 -0.24944253 -0.38965133 0.11093848
-0.41846055 -0.012058817 0.039394766 -0.38809147 -0.11478832 -0.43579724 -0.039149795 -0.3897893
-0.19953561 -0.1285751 -0.037299424 0.20486765 -0.82217765 0.0730878 -0.3748264 -0.40273094
-0.54135185 -0.34260052 -0.20848572 -0.053367995 -0.2982081 0.043464143 -0.3875535 -0.21042243
-0.05361183 -0.51082814 0.056256674 0.15262863 -0.07923572 -0.6350962 -0.38230366 -0.45495602
-0.37646267 0.018178571 -0.2939769 -0.14579175 -0.31663612 -1.076764 -0.55630857 -0.3607581
0.031017995 0.09724334 -0.08834753 -0.5370289 -0.3392224 -0.57486475 -0.07129146 -0.30748802
-0.15893066 -0.2871639 -0.50858706 -0.19479011 -0.022060856 -0.22172175 -0.22106247 -0.36720428
-0.35183787 -0.17313196 -0.492728 0.15897113 -0.8238249 -0.26294982 -0.5192138 -0.41463852
-0.10244261 0.19264589 -0.17054497 -0.01881124 -0.36993858 0.14470951 -0.26590768 -0.49057516
-0.3780881 -0.41496253 0.15119308 -0.035685536 -0.017733209 0.0037185175 -0.09586508 -0.23671812
-0.7019195 -0.40523124 -0.49994627 -0.24711351 -0.8063064 -0.19299167 -0.16840465 -0.2259064
-0.62439543 -0.51925373 -0.46286386 -0.08311241 -0.44454238 -0.8859173 0.083410814 0.16553552
-0.42576328 -0.41861817 -0.14640777 -0.45160538 0.043746263 -0.41125613 -0.1500431 -0.24427608
-0.66937494 -0.48002633 -0.38485384 -0.43515372 -0.23891757 -0.2928317 0.17903604 -0.2106189
0.12569258 0.0017946206 -0.22792284 -0.10349106 -0.16128825 -0.48506388 -0.27230895 -0.014352106
-0.41963953 -0.12209186 -0.29398325 -0.17801923 -0.29415026 -0.043190625 -0.1859062 -0.68827087
-0.28539586 0.023047376 -0.4602758 -0.3250308 -0.066132605 -0.21742289 -0.19916156 -0.2763687
-0.5139273 -0.44469902 -0.3059026 -0.72199935 -0.36477947 -0.40792668 -0.27637526 -0.4644815
00000000: b5f3 823e fa65 2dbe 9be4 643d 6c3c 723e
00000010: d9fe a2be 108d b1bd 7b48 48bf 20c3 b4be
00000020: b6e6 14bf 8ad9 08bf 5a10 8dbd 4b84 3abd
00000030: 6bab 77be 406f 623c c49e e6be 184d 37be
00000040: 27c0 673c 3d31 0dbf 51cd 56bd 5ba7 14bf
00000050: ef76 cbbe a813 20bf 1da6 99be 279c 21bf
00000060: a646 09be febe b1bd 8695 39be 8e34 2e3e
00000070: 317e e0be ee7d 25be 99fb 42bf f67c a1be
00000080: 3a84 d8be 616a 89be 1115 8fbd c045 0dbf
00000090: 4a10 a3be a6c2 1fbf b937 0b3e 9f3c 91be
000000a0: de91 96be 4e87 35bf f3ee 223d 8741 f7bd
000000b0: 7666 393e 7a54 0cbf 5c17 37bd 7e59 b6be
000000c0: b9bf 9ebd 9765 d3be 7033 c6be e477 a2bc
000000d0: 8c0f 62be c38b 94be 2907 01bf a72d 3cbf
000000e0: 0900 18be 3924 d9be 7f8a e3bc 2f9f 1abe
000000f0: 814f 0dbf 6f99 06be efa4 0dbf fa91 bbbd
00000100: 6fdc 2bbf d649 6cbd 4115 cbbe 0e87 a1be
00000110: 0d7b d6be 188c 94be 4ef1 ebbe 09ff 98be
00000120: 6fb3 69bd 1bfd 803e be9e abbd 5829 cbbd
00000130: 6d2b 083d bdad b3be 72ab 3ebe 5cf9 67be
00000140: f32d 6fbd 4281 20be c726 b9be e64b 77be
00000150: bd5f 80be fa31 f2be 0758 38bd b137 67be
00000160: d179 b5be 4799 32bf bfe4 3cbf bd73 d1be
00000170: 8dc4 d13d ba45 c1be 88d2 8dbe 2a76 8d3d
00000180: 9ce9 ecbe dd3e b9be 043c c6be 8993 fabd
00000190: a622 17bf 8cc1 bdbe 24a4 9ebe be2b d5be
000001a0: dddb b0be fccb b2be f56e 06bf 033d afbe
000001b0: 27ec ffbe dd6d 7fbe 6180 c7be b733 e33d
000001c0: 7640 d6be 5892 45bc 685c 213d edb3 c6be
000001d0: 2416 ebbd d120 dfbe 895b 20bd 7792 c7be
000001e0: 1053 4cbe 31a9 03be 48c7 18bd d3c8 513e
000001f0: 3c7a 52bf 0eaf 953d 3fe9 bfbe c032 cebe
00000200: 0996 0abf 5669 afbe 487d 55be 6698 5abd
00000210: bbae 98be 7507 323d 6a6d c6be fa78 57be
00000220: 1498 5bbd a2c5 02bf 666d 663d ae4a 1c3e
00000230: 5646 a2bd aa95 22bf 4ebd c3be ffef e8be
00000240: b7bf c0be 3aeb 943c 2484 96be 6f4a 15be
00000250: 211e a2be 67d3 89bf 3d6a 0ebf 49b5 b8be
00000260: 7319 fe3c 8427 c73d 8def b4bd ba7a 09bf
00000270: 8fae adbe 562a 13bf 4201 92bd 126f 9dbe
00000280: b8be 22be 2607 93be c332 02bf 0f77 47be
00000290: f8b8 b4bc 070b 63be 335e 62be 3302 bcbe
000002a0: 1824 b4be 8149 31be d846 fcbe 54c9 223e
000002b0: 30e6 52bf 5ca1 86be 32eb 04bf 804b d4be
000002c0: 6ecd d1bd f744 453e 57a3 2ebe 081a 9abc
000002d0: 9768 bdbe bb2e 143e 0d25 88be ab2c fbbe
000002e0: c394 c1be f875 d4be 5cd2 1a3e ff2a 12bd
000002f0: 3c45 91bc 5fb2 733b e954 c4bd 3c66 72be
00000300: ffb0 33bf 787a cfbe f5f8 ffbe 530b 7dbe
00000310: 196a 4ebf 9c9f 45be 4572 2cbe 0254 67be
00000320: 61d8 1fbf d0ed 04bf 7efc ecbe d736 aabd
00000330: 0f9b e3be 7acb 62bf 4ad3 aa3d 2582 293e
00000340: a5fd d9be 1f55 d6be ebeb 15be d238 e7be
00000350: 482f 333d 2a90 d2be e6a4 19be 8223 7abe
00000360: 285c 2bbf 03c6 f5be 900b c5be 78cc debe
00000370: cfa6 74be 09ee 95be 3955 373e 7bac 57be
00000380: 8eb5 003e 7a39 eb3a 9b64 69be 1ff3 d3bd
00000390: bf28 25be 4b5a f8be 146c 8bbe 1825 6bbc
000003a0: feda d6be 4c0b fabd f984 96be ac4a 36be
000003b0: dd9a 96be a7e8 30bd 325e 3ebe 8532 30bf
000003c0: 681f 92be dacd bc3c 45a9 ebbe 706a a6be
000003d0: 8870 87bd 1ba4 5ebe 02f1 4bbe 3380 8dbe
000003e0: bd90 03bf 97af e3be 449f 9cbe f3d4 38bf
000003f0: 60c4 babe c4db d0be 0f81 8dbe 85d0 edbe

actor_fc2.weight f4 [300, 400]
-0.22542186 -0.013594407 -0.20220245 -0.07215086 -0.07209601 0.02542435 0.017400904 0.025432201
-0.16044848 0.09386817 0.001187935 -0.021796236 0.05075471 -0.17804061 -0.031428546 -0.02920986
-0.03906828 -0.04595677 -0.040458243 -0.18272157 -0.14473812 -0.04380166 -0.12593919 -0.0810431
-0.25241825 0.01015699 -0.060242742 0.024847662 0.004508235 -0.16452844 -0.049977127 -0.024336439
0.08293295 -0.0489625 0.030647375 0.022265702 -0.19133715 -0.023019135 -0.11645988 -0.07058119
-0.19649996 0.02658746 -0.090942554 -0.013406211 -0.051086575 0.013088418 0.024008239 -0.06429148
0.03210775 -0.042919736 -0.0042129518 -0.009779781 -0.064971246 -0.11837121 0.023218393 -0.012210098
0.0055576256 -0.047391135 -0.18039921 -0.09216094 -0.09335451 -0.08190517 -0.21420653 -0.17024596
-0.033632748 -0.010910695 0.038776215 -0.111188024 -0.047421027 -0.12292825 -0.107000984 -0.004184507
-0.022244228 0.042575344 -0.16648619 0.0032820373 -0.06455803 -0.03121297 -0.11165542 -0.08969437
-0.016511569 -0.12044972 -0.07462341 -0.0042858296 -0.06755063 -0.051801637 -0.055610076 -0.03616438
-0.026910808 -0.12035477 0.055811808 -0.059470166 0.005430869 -0.06805563 0.028665105 -0.10140563
-0.03705242 -0.021023627 -0.07084414 -0.044095945 -0.048266612 -0.09419017 -0.07008954 -0.050733358
-0.14183322 0.034921296 -0.1828746 -0.09283409 -0.034159366 0.056375835 -0.095964834 -0.1021487
-0.03408009 0.04213591 0.06480329 -0.04678777 -0.00074277085 -0.16321526 -0.05854705 -0.122416995
0.039551944 -0.07379785 0.051252764 -0.09446463 0.019867998 -0.071786225 -0.04414746 -0.07245975
-0.055940352 -0.032853905 -0.038761184 -0.06172739 0.060704134 -0.01658592 -0.016963752 -0.07357807
-0.06478245 -0.075518236 -0.048934396 -0.030534398 0.018340915 -0.111353666 -0.004580671 -0.08227674
-0.13837679 -0.1482555 -0.09174667 -0.21203624 -0.10498175 -0.17927237 -0.12394052 -0.041012343
-0.18060969 -0.18688786 0.030037327 -0.05112546 -0.12443419 -0.08376836 -0.20531245 -0.0027872447
0.022039652 -0.020872667 -0.10414913 0.0039635906 -0.12824444 0.095570914 -0.036579717 -0.051941574
-0.030303443 -0.020889184 -0.040733155 -0.10059386 -0.08839713 -0.19258629 -0.035761688 0.0026571117
-0.0012255395 -0.081831686 -0.10199694 -0.042288788 0.00701795 -0.07605114 0.021791577 -0.033909783
-0.16938423 -0.043724667 -0.12891306 -0.1019305 -0.020403715 -0.099766344 -0.16329789 0.021337997
-0.09656556 -0.040171716 -0.09246798 -0.07745105 -0.01677557 -0.0130054485 -0.05900753 -0.14100015
-0.13183531 -0.032371476 -0.017876754 -0.16086663 -0.08402099 0.00044503977 -0.015489399 0.04452695
-0.049208034 -0.13949919 -0.0052804924 -0.09843788 -0.050914083 -0.178168 0.07763636 -0.05018294
-0.12820898 -0.036563873 -0.11389478 -0.0748079 0.07695314 -0.27944532 -0.12808974 0.116965264
0.07412235 -0.14135304 -0.0040014633 -0.050465625 -0.030164555 0.015959766 -0.17465316 -0.12127305
0.15934765 -0.14522097 -0.059695415 -0.05221079 0.024297144 0.06120398 -0.05430457 -0.22749758
-0.03062942 -0.019093074 -0.006531302 0.07786759 -0.09470812 -0.064088576 0.08270457 -0.12929156
0.09255204 -0.18952447 -0.0064918348 -0.033628397 -0.10702285 -0.21388371 0.02353418 0.05058634
00000000: fdd4 66be 13bb 5ebc 290e 4fbe d5c3 93bd
00000010: 13a7 93bd ba46 d03c 578c 8e3c 3157 d03c
00000020: 9b4c 24be f53d c03d 7cb4 9b3a 058e b2bc
00000030: 2ce4 4f3d 4750 36be 38bb 00bd 8449 efbc
00000040: 1006 20bd 2b3d 3cbd 8bb7 25bd 5d1b 3bbe
00000050: 3b36 14be 5f69 33bd 34f6 00be edf9 a5bd
00000060: f73c 81be 8169 263c 18c1 76bd 538d cb3c
00000070: d1b9 933b 257a 28be d1b4 4cbd 365d c7bc
00000080: c0d8 a93d e78c 48bd 3410 fb3c 9066 b63c
00000090: e3ed 43be a092 bcbc 8482 eebd df8c 90bd
000000a0: 4937 49be f2cd d93c 1740 babd b9a5 5bbc
000000b0: 2840 51bd ce70 563c edac c43c 40ab 83bd
000000c0: 6b83 033d 9bcc 2fbd cd0c 8abb 603b 20bc
000000d0: a50f 85bd 9b6c f2bd 8034 be3c dd0c 48bc
000000e0: be1c b63b 351d 42bd 92ba 38be e0be bcbd
000000f0: a630 bfbd e6bd a7bd f558 5bbe f554 2ebe
00000100: 7ec2 09bd c6c2 32bc cfd3 1e3d 8cb6 e3bd
00000110: 8d3c 42bd cec1 fbbd 5523 dbbd 301e 89bb
00000120: 8739 b6bc 7c63 2e3d 5b7b 2abe 7317 573b
00000130: 0037 84bd 58b2 ffbc 99ab e4bd afb1 b7bd
00000140: 4543 87bc 58ae f6bd 29d4 98bd 2570 8cbb
00000150: fc57 8abd f42d 54bd 64c7 63bd 1a21 14bd
00000160: 0e74 dcbc 907c f6bd ec9a 643d fd96 73bd
00000170: 6ef5 b13b c060 8bbd 15d3 ea3c c1ad cfbd
00000180: 47c4 17bd be39 acbc bc16 91bd f39d 34bd
00000190: 36b3 45bd c7e6 c0bd 1b8b 8fbd c8cd 4fbd
000001a0: ba3c 11be a209 0f3d 7b43 3bbe cd1f bebd
000001b0: b1ea 0bbd 59ea 663d 3689 c4bd 5633 d1bd
000001c0: 9097 0bbd b496 2c3d 96b7 843d 88a4 3fbd
000001d0: 82b6 42ba e721 27be 08cf 6fbd c3b5 fabd
000001e0: 3801 223d 5423 97bd 6bee 513d ac76 c1bd
000001f0: 36c2 a23c a804 93bd f8d3 34bd c765 94bd
00000200: b621 65bd d191 06bd 0cc4 1ebd dcd5 7cbd
00000210: e6a4 783d 32df 87bc 91f7 8abc 19b0 96bd
00000220: a9ac 84bd 4ea9 9abd 6f6f 48bd 4623 fabc
00000230: b03f 963c 640d e4bd 7419 96bb b580 a8bd
00000240: a5b2 0dbe 4ad0 17be aee5 bbbd 0720 59be
00000250: ac00 d7bd 2d93 37be 87d4 fdbd 8ffc 27bd
00000260: bff1 38be 885f 3fbe d710 f63c ee68 51bd
00000270: 5ad7 febd bf8e abbd 6d3d 52be 35aa 36bb
00000280: 808c b43c 28fd aabc 244c d5bd 02e1 813b
00000290: 8352 03be afba c33d 9dd4 15bd b0c0 54bd
000002a0: ed3e f8bc cb1f abbc cfd7 26bd 2704 cebd
000002b0: 8e09 b5bd 5735 45be d97a 12bd f022 2e3b
000002c0: 48a2 a0ba 5f97 a7bd c6e3 d0bd 0237 2dbd
000002d0: d5f6 e53b b3c0 9bbd 4084 b23c fce4 0abd
000002e0: 0f73 2dbe a318 33bd c901 04be f0c0 d0bd
000002f0: b125 a7bc 4c52 ccbd 9037 27be 06cd ae3c
00000300: 2ac4 c5bd 198b 24bd da5f bdbd a89e 9ebd
00000310: ec6c 89bc ce14 55bc e1b1 71bd 5862 10be
00000320: d6ff 06be f497 04bd 4572 92bc 39ba 24be
00000330: 3213 acbd 3a54 e939 40c7 7dbc e461 363d
00000340: 5d8e 49bd e0d8 0ebe fb07 adbb cd99 c9bd
00000350: 498b 50bd ac71 36be d0ff 9e3d a08c 4dbd
00000360: 3749 03be 00c4 15bd ab41 e9bd e234 99bd
00000370: 9c99 9d3d 7513 8fbe f529 03be 7c8b ef3d
00000380: 75cd 973d dabe 10be b51e 83bb 0bb5 4ebd
00000390: a81b f7bc 0ebe 823c 47d8 32be 015e f8bd
000003a0: 082c 233e ceb4 14be 2e83 74bd fbda 55bd
000003b0: ce0a c73c 06b1 7a3d 786e 5ebd 20f5 68be
000003c0: 8dea fabc 1469 9cbc 8804 d6bb 0b79 9f3d
000003d0: 55f6 c1bd df40 83bd 0361 a93d 0265 04be
000003e0: ed8b bd3d b412 42be 75b9 d4bb eebd 09bd
000003f0: cc2e dbbd 5504 5bbe c1ca c03c 9f33 4f3d

actor_fc2.bias f4 [300]
0.028476493 0.11936141 -0.37736267 -0.021754712 -0.05936981 -0.0017758496 0.002074694 -0.1544381
-0.066488534 0.3033473 -0.16519159 -0.1763896 -0.11503517 -0.11028608 0.050296947 -0.08672941
-0.0755083 -0.016066752 -0.14162953 -0.015703382 -0.12385939 -0.061078925 -0.071256906 -0.30519843
-0.06417353 0.009579205 -0.3085768 0.06882748 -0.3307465 -0.06184771 0.103802264 0.22966923
-0.4907348 0.23674652 -0.10857342 -0.36925942 0.031479362 -0.54401374 -0.14586492 -0.011000654
-0.043649226 -0.39289257 -0.03916143 -0.032903604 -0.120845556 -0.030513516 0.121068515 -0.029711131
-0.16301742 -0.00073086 0.07217882 -0.28300798 -0.42828983 -0.035901427 -0.0015330508 -0.20109318
-0.23997512 0.03438508 0.108073294 -0.16849482 -0.12045282 -0.068497784 0.0028010246 0.07865302
-0.02726907 -0.023769338 -0.00545952 -0.2986252 -0.051218398 -0.40671968 -0.27060643 0.020652158
-0.10229171 -0.12411202 -0.11677367 0.039816484 -0.043227788 -0.315283 -0.20300269 -0.029389866
-0.057693355 0.27952543 -0.20209566 0.0020089329 -0.082521886 -0.3862433 -0.09477542 0.044947762
0.217305 -0.08512651 0.18713036 -0.019766018 0.055089887 0.0031694933 -0.003926783 -0.5077954
0.15779239 0.11691021 0.0034514149 -0.00933713 0.18877879 -0.0078947805 -0.03718868 0.05537079
-0.13248035 0.060896594 -0.3119134 -0.07074341 -0.01806993 -0.103943996 -0.10049532 -0.057754636
0.13238004 0.028905982 -0.035440933 -0.13247128 -0.14579609 -0.005766587 0.07717107 0.0145433545
-0.020824563 -0.4163607 0.18068418 0.017862793 -0.17895904 -0.54478925 0.061606895 -0.14579004
0.23525333 -0.093053676 -0.2107047 -0.44414002 0.010593812 -0.061971843 -0.16145481 -0.05620732
-0.17102876 0.024777083 -0.047900166 -0.1264086 -0.14763069 -0.23230202 -0.21226087 -0.15055855
0.08167623 0.052765824 -0.053433035 0.016168337 -0.0923909 -0.13805209 -0.14611542 0.24583805
-0.06326496 0.1837623 -0.054351084 -0.07970753 -0.41261634 0.23130837 -0.10947368 -0.0057698213
-0.17664038 -0.17037703 -0.13059203 -0.11877659 0.104034476 -0.20758915 -0.0054825232 -0.033185188
-0.29156846 -0.15894926 -0.5886625 -0.13955513 -0.11370709 0.22746937 -0.09471861 -0.012179168
0.10053995 0.17349422 -0.0026401277 -0.364203 0.0073801046 0.035566226 -0.25495195 -0.23710077
0.10124644 -0.030351834 0.06884704 -0.053602338 0.0720157 -0.0593024 0.099982 -0.04928211
-0.048516892 0.0021673336 -0.0023612778 -0.16529769 -0.09318766 -0.32127315 0.121398196 -0.0056557064
-0.068267435 -0.45435265 -0.020772835 -0.23875824 0.10017941 -0.26777408 0.22060278 -0.27567112
-0.1364888 -0.064609215 -0.026955998 0.058336608 -0.034906168 0.22320944 0.1977117 -0.042739812
0.20559834 -0.45667878 -0.027326124 -0.036989965 0.27914295 -0.49540988 -0.4623115 -0.16502659
-0.16318125 -0.030518847 -0.10145859 -0.054336935 -0.22870979 -0.07050552 -0.30140004 -0.12263552
0.07387952 -0.015245783 -0.45090267 -0.3529229 -0.093767315 -0.014632209 -0.009743331 -0.21785317
-0.03162573 0.06636628 -0.07565816 -0.05928789 -0.09382683 -0.014423615 -0.00905571 0.045999333
0.12628378 -0.095300406 -0.27322942 -0.07787539 0.010938288 -0.12853108 0.0053068744 -0.16833644
00000000: 8947 e93c c173 f43d ae35 c1be f036 b2bc
00000010: c22d 73bd a0c3 e8ba 97f7 073b 0525 1ebe
00000020: 242b 88bd 5650 9b3e fc27 29be 7a9f 34be
00000030: 8f97 ebbd abdd e1bd 2c04 4e3d 309f b1bd
00000040: 18a4 9abd 6c9e 83bc 5507 11be 61a4 80bc
00000050: fea9 fdbd e52d 7abd 24ef 91bd f842 9cbe
00000060: 696d 83bd 19f2 1c3c c7fd 9dbe 6cf5 8c3d
00000070: 9b57 a9be 0654 7dbd 4896 d43d 692e 6b3e
00000080: 9741 fbbe ae6d 723e be5b debd 920f bdbe
00000090: 81f0 003d 7c44 0bbf 9d5d 15be 163c 34bc
000000a0: 88c9 32bd 3729 c9be bc67 20bd eec5 06bd
000000b0: e07d f7bd 7bf7 f9bc c5f2 f73d c264 f3bc
000000c0: 0aee 26be 2f97 3fba 7dd2 933d 6ce6 90be
000000d0: ce48 dbbe 600d 13bd a6f0 c8ba 5feb 4dbe
000000e0: 0abc 75be 5fd7 0c3d 8855 dd3d e889 2cbe
000000f0: f8af f6bd 9148 8cbd 6591 373b d614 a13d
00000100: 6263 dfbc eab7 c2bc c6e5 b2bb 67e5 98be
00000110: 62ca 51bd 903d d0be ed8c 8abe b72e a93c
00000120: 517e d1bd 712e febd 0927 efbd 9c16 233d
00000130: 9f0f 31bd c66c a1be f0df 4fbe 04c3 f0bc
00000140: de4f 6cbd f51d 8f3e 2af2 4ebe 4da8 033b
00000150: 3c01 a9bd afc1 c5be 9e19 c2bd 251b 383d
00000160: 3485 5e3e cf56 aebd 1a9f 3f3e 58ec a1bc
00000170: efa5 613d 46b7 4f3b 3eac 80bb e1fe 01bf
00000180: 5494 213e 9f6e ef3d 2231 623b c3fa 18bc
00000190: 3a4f 413e 1c59 01bc 2853 18bd 7bcc 623d
000001a0: eea8 07be b56e 793d 1db3 9fbe ece1 90bd
000001b0: 6407 94bc 97e0 d4bd 7ed0 cdbd 2090 6cbd
000001c0: a28e 073e 3dcc ec3c 832a 11bd 8da6 07be
000001d0: 924b 15be a3f5 bcbb de0b 9e3d 4047 6e3c
000001e0: 4698 aabc 3b2d d5be 4605 393e fe54 923c
000001f0: 0a41 37be 4f77 0bbf 8357 7c3d fc49 15be
00000200: 40e6 703e ed92 bebd f9c2 57be 5266 e3be
00000210: ab91 2d3c 30d6 7dbd 6954 25be a639 66bd
00000220: 2a22 2fbe 4ff9 ca3c f732 44bd 4271 01be
00000230: 802c 17be 95e0 6dbe ea5a 59be 052c 1abe
00000240: de45 a73d fa20 583d 99dc 5abd 7673 843c
00000250: 7137 bdbd 875d 0dbe 489f 15be f8bc 7b3e
00000260: 0f91 81bd 2f2c 3c3e 3e9f 5ebd b43d a3bd
00000270: 7342 d3be 1adc 6c3e bd33 e0bd c510 bdbb
00000280: 37e1 34be 5177 2ebe ebb9 05be 2441 f3bd
00000290: 0710 d53d 4092 54be bda6 b3bb 31ed 07bd
000002a0: 7648 95be 98c3 22be 96b2 16bf 8ae7 0ebe
000002b0: 43df e8bd bbed 683e d5fb c1bd 228b 47bc
000002c0: e4e7 cd3d 78a8 313e fe05 2dbb d178 babe
000002d0: ced4 f13b e4ad 113d 1089 82be 8bca 72be
000002e0: 4b5a cf3d 69a4 f8bc adff 8c3d 208e 5bbd
000002f0: f87c 933d 13e7 72bd 5dc3 cc3d 0adc 49bd
00000300: a6b9 46bd d309 0e3b abbf 1abb cc43 29be
00000310: 2cd9 bebd ea7d a4be 9e9f f83d 8153 b9bb
00000320: cccf 8bbd e9a0 e8be cb2b aabc 0a7d 74be
00000330: dd2a cd3d af19 89be b2e5 613e c424 8dbe
00000340: b8c3 0bbe d651 84bd d3d2 dcbc 5ef2 6e3d
00000350: c5f9 0ebd 0491 643e f074 4a3e f10f 2fbd
00000360: 5f88 523e cdd1 e9be 09db dfbc ca82 17bd
00000370: d3eb 8e3e 5da6 fdbe 18b4 ecbe bbfc 28be
00000380: fc18 27be a902 fabc 85c9 cfbd 6890 5ebd
00000390: e632 6abe 3365 90bd 1b51 9abe 5528 fbbd
000003a0: 254e 973d 73c9 79bc b7dc e6be 4fb2 b4be
000003b0: 1409 c0bd efbb 6fbc 7ea2 1fbc e714 5fbe
000003c0: fb89 01bd 0beb 873d aaf2 9abd dcd7 72bd
000003d0: 4828 c0bd 0751 6cbc 675e 14bc cc69 3c3d
000003e0: 8950 013e dc2c c3bd bae4 8bbe 227d 9fbd
000003f0: 8136 333c a79d 03be 4ae5 ad3b 6360 2cbe

actor_fc3.weight f4 [4, 300]
-0.05528449 -0.3816941 0.116226085 0.286284 0.056571443 -0.09231585 0.13998854 -0.28167698
-0.031644695 -0.1880061 0.43780524 0.11687523 0.14955534 0.027145982 -0.17417113 -0.03737216
-0.6453802 -0.02649613 -0.010795265 -0.03663913 0.035855014 0.051345874 0.07653123 -0.11078866
-0.57494855 0.042637914 0.14966081 0.577439 -0.035027634 0.23351766 0.60564536 -0.43005425
-0.17544839 0.16833664 0.031504225 -0.24236281 0.028560014 -0.18376838 -0.2676624 -0.009989821
-0.12107377 -0.18398519 0.028388834 0.019677091 0.49601477 -0.12913802 0.023250425 0.37536445
0.14442143 0.110000096 -0.37002137 0.055689257 0.28887856 0.033209383 0.027358828 -0.97109014
0.34636647 -0.6509337 -0.29412162 0.5747213 0.03332915 -0.0040529994 0.074456036 0.18901901
-0.48208883 -0.00028361622 0.640244 -0.41519865 -0.02877065 0.52862716 -0.06995263 0.0036341688
0.077174924 0.0004151006 -0.020788155 0.08354954 0.087800704 0.8398374 0.5626167 0.21503238
0.03887417 -0.38249516 0.14707065 0.1984092 0.0072161765 -0.13434476 0.13229057 -0.27305514
-0.24613228 -0.060160857 0.19195038 -0.38176608 -0.87353694 -0.06431503 -0.22703525 -0.29962555
-0.032107506 -0.18457061 0.047476668 0.16504842 -0.39893067 -0.10705649 0.06676292 -0.03517529
-0.6990902 0.80627304 -0.23021303 -0.10670362 0.28580666 0.12849748 0.15785556 0.15073568
0.4733447 -0.010821192 0.02202955 0.2643909 -0.10259471 0.024575219 -0.07164555 -0.034122065
0.27182722 0.09309712 0.051884208 0.16269843 0.23212852 -0.4394176 0.10265286 -0.079391204
-0.12908714 0.08938507 0.2830683 -0.42760655 0.02373655 0.7006858 0.42360845 -0.014914074
0.25351772 0.1399734 -0.012881706 -0.059783656 0.09549049 -0.41878307 -0.18309821 0.061375864
-0.15031007 -0.41878706 0.010733056 0.05088491 0.08987894 0.073062345 -0.18140414 0.0860579
-0.10966486 0.041941766 -0.05988151 0.008157855 -0.72558045 -0.019991558 -0.45400828 0.020019293
-0.3663305 0.0033956324 0.6858619 -0.16813467 0.19988495 -0.51177895 -0.22528857 -0.077271506
-0.8442451 -0.05703665 0.46110982 -0.049260326 -0.15674473 -0.016205722 -0.112790436 -0.23500505
-0.5223765 -0.6531344 0.113411225 0.13295938 -0.0337797 -0.1448791 -0.58009875 0.3352409
-0.37586737 0.11171062 0.11254821 -0.0053712633 -0.315431 0.002992862 0.42207345 0.064787924
-0.14107731 0.06874367 0.015172206 0.06558356 -0.0523822 -0.17073572 -0.14688845 0.0519761
-0.10325824 -0.27373835 0.008929706 -0.074411385 -0.16490714 0.48743868 0.13762897 0.3050748
-0.100369334 0.029585205 -0.37523273 -0.0761341 -0.03401224 -0.3591479 -0.12542151 0.061603416
-0.85961777 -0.04704731 -0.00034873665 0.0060047167 -0.58026403 -0.32347992 -0.13099994 0.16105816
0.3874634 0.03956602 -0.020167502 -0.1969901 -0.12294296 -0.28247285 0.19427453 0.0034921716
-0.505077 0.23365137 -0.15706797 -0.09080904 0.1964293 0.012656584 -0.05408387 -0.33361265
0.017693978 0.4316719 0.0313636 0.004513556 0.7387701 0.067855 -0.44073415 0.31784102
-0.5981632 0.0739621 0.11679174 -0.2646998 0.032368056 0.4149289 0.32204163 -0.0688434
00000000: fd71 62bd 696d c3be f107 ee3d d193 923e
00000010: 75b7 673d 1810 bdbd 2859 0f3e f737 90be
00000020: de9d 01bd ac84 40be 0228 e03e 485c ef3d
00000030: 0925 193e 4061 de3c eb59 32be 8d13 19bd
00000040: a337 25bf 690e d9bc a0de 30bc ea12 16bd
00000050: b5dc 123d 0d50 523d 68bc 9c3d 2ae5 e2bd
00000060: d42f 13bf 18a5 2e3d af40 193e 0bd3 133f
00000070: 2379 0fbd 411f 6f3e 930b 1b3f 1230 dcbe
00000080: bea8 33be 7160 2c3e 930a 013d f52d 78be
00000090: b1f6 e93c c72d 3cbe 0c0b 89be 59ac 23bc
000000a0: 86f5 f7bd 9d66 3cbe b38f e83c da31 a13c
000000b0: a6f5 fd3e c23c 04be ad77 be3c c52f c03e
000000c0: 36e3 133e bb47 e13d 7173 bdbe 6b1a 643d
000000d0: e4e7 933e 9006 083d 9f1f e03c 5d99 78bf
000000e0: f256 b13e 97a3 26bf 1c97 96be ef20 133f
000000f0: 2684 083d 06cf 84bb 687c 983d 338e 413e
00000100: 59d4 f6be 53b2 94b9 08e7 233f eb94 d4be
00000110: 6db0 ebbc 1c54 073f 5343 8fbd 3c2b 6e3b
00000120: e30d 9e3d dca1 d939 ec4b aabc 051c ab3d
00000130: dbd0 b33d 95ff 563f a607 103f 7331 5c3e
00000140: 863a 1f3d 68d6 c3be b099 163e c82b 4b3e
00000150: ad75 ec3b ac91 09be 2e77 073e e2cd 8bbe
00000160: 1a0a 7cbe 3b6b 76bd a48e 443e d876 c3be
00000170: 1ea0 5fbf 99b7 83bd ee7b 68be 8568 99be
00000180: 2983 03bd 1400 3dbe e576 423d 7402 293e
00000190: a440 ccbe 6f40 dbbd ffba 883d f713 10bd
000001a0: 93f7 32bf e967 4e3f f7bc 6bbe 6d87 dabd
000001b0: 4055 923e d894 033e e3a4 213e 745a 1a3e
000001c0: 3d5a f23e 5e4b 31bc 5177 b43c 3e5e 873e
000001d0: 2d1d d2bd f851 c93c e7ba 92bd 94c3 0bbd
000001e0: f02c 8b3e b4a9 be3d 8984 543d 6b9a 263e
000001f0: 19b3 6d3e 58fb e0be aa3b d23d db97 a2bd
00000200: 6b2f 04be 850f b73d 54ee 903e 3fef dabe
00000210: 2773 c23c 2560 333f 35e3 d83e 295a 74bc
00000220: 13cd 813e 3055 0f3e ca0d 53bc b5df 74bd
00000230: 8590 c33d bc6a d6be 197e 3bbe 4265 7b3d
00000240: e2ea 19be 426b d6be b3d9 2f3c b26c 503d
00000250: 7312 b83d b6a1 953d 02c2 39be 203f b03d
00000260: f897 e0bd 21cb 2b3d 5046 75bd 86a8 053c
00000270: a4bf 39bf 56c5 a3bc c673 e8be 80ff a33c
00000280: ac8f bbbe 4289 5e3b a594 2f3f 7f2b 2cbe
00000290: a4ae 4c3e f203 03bf 0cb2 66be 8640 9ebd
000002a0: 7220 58bf 439f 69bd 9616 ec3e 32c5 49bd
000002b0: b181 20be ddc1 84bc acfe e6bd 2aa5 70be
000002c0: 77ba 05bf d133 27bf 2544 e83d 8126 083e
000002d0: 955c 0abd 305b 14be 5a81 14bf b2a4 ab3e
000002e0: b071 c0be 8ac8 e43d ad7f e63d 6c01 b0bb
000002f0: 2c80 a1be e423 443b 031a d83e 88af 843d
00000300: 9276 10be 7bc9 8c3d d894 783c ac50 863d
00000310: b88e 56bd 58d5 2ebe ed69 16be e4e4 543d
00000320: 0e79 d3bd 6f27 8cbe e74d 123c ff64 98bd
00000330: 6bdd 28be 9091 f93e 9cee 0c3e c432 9c3e
00000340: 708e cdbd ac5c f23c 811e c0be 32ec 9bbd
00000350: 6b50 0bbd 3ce2 b7be 7f6e 00be dd53 7c3d
00000360: e90f 5cbf aeb4 40bd a4d6 b6b9 37c3 c43b
00000370: 2f8c 14bf 299f a5be d924 06be 6eec 243e
00000380: 9a61 c63e fb0f 223d 5136 a5bc c6b7 49be
00000390: 85c9 fbbd 48a0 90be e7ef 463e ebdc 643b
000003a0: ba4c 01bf 4e42 6f3e 6dd6 20be 17fa b9bd
000003b0: c324 493e 905d 4f3c 0c87 5dbd 47cf aabe
000003c0: f6f2 903c 1904 dd3e 1e77 003d 74e6 933b
000003d0: 0a20 3d3f 90f7 8a3d e8a7 e1be 0fbc a23e
000003e0: 3921 19bf 7179 973d 8230 ef3d bb86 87be
000003f0: 5e94 043d 9071 d43e a4e2 a43e c5fd 8cbd

actor_fc3.bias f4 [4]
-0.03365418 0.037503622 -0.017794214 -0.1422184
00000000: f7d8 09bd 669d 193d 2cc5 91bc b3a1 11be
