A2C/best_model/checkpoint_60.43.pth (torch, 358882 bytes, 16 tensors)

std f4 [4]
-1.0075867 -1.0250748 -1.0381858 -1.1731246
00000000: 9af8 80bf a735 83bf 46e3 84bf f228 96bf

actor_fc1.weight f4 [64, 33]
0.078096904 0.0040247585 0.01901717 0.08140804 0.2547773 0.16136044 -0.2011595 0.101391785
0.021276752 0.06300136 0.013860348 -0.09287323 -0.03426003 -0.08489589 -0.053058963 0.0804107
0.20060879 -0.058971442 -0.06517739 -0.07264103 0.11174803 0.014269374 -0.04013111 -0.2017439
-0.1911302 0.1076003 0.009849494 0.21422479 -0.02526155 0.07950882 -0.12738107 0.10568217
0.25277314 -0.124413505 0.036016803 -0.17739987 -0.08704063 -0.036911633 0.0041793087 -0.093779214
-0.054790683 0.06479453 -0.038668 0.0036874448 -0.07491341 -0.09445182 0.23272441 -0.017964149
0.1423306 -0.010671506 0.056604005 -0.016371673 -0.054385155 -0.12223972 0.011967445 0.011303274
0.09089982 0.21724443 -0.15177312 -0.05392359 -0.14280173 -0.041482426 -0.04290199 -0.12797658
0.1693024 0.071256205 -0.30535066 0.053796884 0.02010767 -0.089505576 0.067033395 -0.02940503
-0.05946405 0.096140124 0.031687677 0.017429497 -0.09726779 0.06857331 -0.045296554 0.12545787
0.28001675 -0.1336404 -0.13118348 0.069644615 0.14519486 0.016113961 -0.020423044 -0.2250264
-0.1723606 0.005917997 0.1373274 0.16146724 -0.19641034 0.12084712 -0.041489 -0.10820232
-0.14101444 -0.17196739 -0.06987045 -0.12424598 -0.017964456 0.1743225 0.10676706 0.0066106813
0.13223885 -0.0051531545 -0.14125101 0.03060258 0.07837723 -0.05272392 0.11605429 0.1815833
-0.08599467 -0.0151830455 0.10641168 0.011272955 -0.07841998 0.08439969 0.030921733 -0.005505349
-0.13462007 -0.07390391 0.020387046 -0.054827012 0.06341346 0.10032855 0.13316296 0.057125602
-0.059448503 0.022942763 -0.13222629 0.3899978 0.023476742 -0.07756009 -0.1376979 0.019645965
0.058438543 -0.05129595 0.13335794 0.12179467 -0.012448649 -0.0031101366 -0.11581559 -0.08702193
-0.041782208 -0.29667774 -0.10074729 -0.12622125 0.13518368 0.14014499 -0.08973873 -0.025227807
0.01848449 0.10661379 -0.067864664 -0.036481842 0.1011241 -0.104143195 0.14032657 0.0082984995
0.11775015 0.08877286 0.057673473 0.14441474 -0.23545991 -0.34915143 -0.188948 -0.022830538
-0.16537315 -0.1035285 -0.06012008 0.07277265 0.08031817 -0.13941392 0.0832694 0.027119363
-0.0058044004 0.10904091 0.16060859 0.12120432 -0.09065866 0.081945345 -0.040723246 0.04790314
-0.047834557 -0.1519568 -0.07068328 -0.22892892 0.11583 0.10197522 -0.15119782 -0.07260693
-0.054274864 0.021921352 -0.050610635 0.03599949 -0.10819923 0.29022062 -0.18091191 0.015387131
0.038880773 -0.026627295 -0.110616945 -0.0662113 0.12590532 0.16330644 -0.091794305 -0.05711466
-0.13232486 -0.15725613 0.013897337 -0.06688416 0.11647371 0.0086827185 -0.056460172 0.018433476
-0.045961913 -0.027976988 0.060088366 -0.14207089 -0.18198422 0.07105807 -0.007100841 0.09479911
0.086098164 -0.08341657 0.08891043 0.15864974 0.027454944 0.08488883 -0.3636901 -0.041562952
-0.14695512 0.27440232 -0.10058805 -0.19469985 0.014004039 0.20668246 -0.15837833 -0.11240637
-0.010698337 -0.0891758 -0.0091775665 0.1458483 0.10220243 -0.025207626 0.023222307 -0.087292664
0.13273376 0.046867527 -0.06322558 0.061807677 -0.07818795 -0.13145451 0.0888708 0.018194022
00000000: 45f1 9f3d 1fe2 833b e5c9 9b3c 42b9 a63d
00000010: 2c72 823e ac3b 253e c2fc 4dbe 7fa6 cf3d
00000020: 954c ae3c db06 813d 8316 633c 5234 bebd
00000030: 3f54 0cbd e5dd adbd 5b54 59bd 5dae a43d
00000040: 646c 4d3e 0a8c 71bd b97b 85bd d2c4 94bd
00000050: 27dc e43d 18ca 693c 8560 24bd f495 4ebe
00000060: a3b7 43be 8c5d dc3d c65f 213c be5d 5b3e
00000070: 4ff1 cebc 85d5 a23d 2f70 02be e56f d83d
00000080: 7b6b 813e 82cc febd 5b86 133d 50a8 35be
00000090: 5c42 b2bd a730 17bd 95f2 883b 510f c0bd
000000a0: 326c 60bd ffb2 843d 5662 1ebd 0fa9 713b
000000b0: 346c 99bd f56f c1bd 4f4f 6e3e 8d29 93bc
000000c0: 1dbf 113e 8ad7 2ebc 9ad9 673d e31d 86bc
000000d0: f8c2 5ebd d158 fabd 1a13 443c 5e31 393c
000000e0: af29 ba3d 5375 5e3e 6a6a 1bbe fbde 5cbd
000000f0: 9e3a 12be 7ae9 29bd ffb9 2fbd 4b0c 03be
00000100: 9c5d 2d3e c6ee 913d ec56 9cbe 1f5a 5c3d
00000110: d7b8 a43c b34e b7bd ce48 893d d1e2 f0bc
00000120: 9390 73bd 1de5 c43d f0ca 013d 4ec8 8e3c
00000130: 5634 c7bd 2a70 8c3d e188 39bd 0778 003e
00000140: 5b5e 8f3e 07d9 08be f654 06be d6a1 8e3d
00000150: f6ad 143e 6d01 843c 3a4e a7bc 526d 66be
00000160: 4c7f 30be c2eb c13b 8e9f 0c3e ab57 253e
00000170: cb1f 49be b27e f73d 5ff0 29bd 2e99 ddbd
00000180: 1766 10be 3818 30be 3d18 8fbd ad74 febd
00000190: 322a 93bc 9981 323e b0a8 da3d 6a9e d83b
000001a0: 9f69 073e cbdb a8bb 1ba4 10be 43b2 fa3c
000001b0: 3e84 a03d 0af5 57bd dfad ed3d f9f0 393e
000001c0: f91d b0bd 4fc2 78bc 5eee d93d 33b2 383c
000001d0: a89a a0bd bfd9 ac3d 934f fd3c 3766 b4bb
000001e0: d8d9 09be ef5a 97bd bc02 a73c 4a92 60bd
000001f0: ebde 813d 0e79 cd3d df5b 083e 89fc 693d
00000200: 4680 73bd 76f2 bb3c 5466 07be cbad c73e
00000210: 4c52 c03c d3d7 9ebd ae00 0dbe 93f0 a03c
00000220: 415d 6f3d b41b 52bd fc8e 083e 7c6f f93d
00000230: 6bf5 4bbc 6fd3 4bbb b930 edbd 8e38 b2bd
00000240: d223 2bbd 25e6 97be 9854 cebd 2540 01be
00000250: 976d 0a3e 2b82 0f3e f0c8 b7bd 8caa cebc
00000260: c96c 973c 5558 da3d a1fc 8abd fc6d 15bd
00000270: 271a cf3d 0749 d5bd c5b1 0f3e 6ef6 073c
00000280: fe26 f13d 8cce b53d 053b 6c3d 75e1 133e
00000290: 671c 71be fac3 b2be 967b 41be 1c07 bbbc
000002a0: 9457 29be c006 d4bd 7940 76bd d409 953d
000002b0: da7d a43d 86c2 0ebe 2689 aa3d 6d29 de3c
000002c0: d732 bebb d750 df3d 9476 243e f839 f83d
000002d0: 3fab b9bd f6d2 a73d 6bcd 26bd 1536 443d
000002e0: 2bee 43bd 909a 1bbe 65c2 90bd 586c 6abe
000002f0: 4738 ed3d 62d8 d03d 9ad3 1abe f1b2 94bd
00000300: 524f 5ebd 6894 b33c 194d 4fbd 3474 133d
00000310: 8f97 ddbd cc97 943e f940 39be 4e1a 7c3c
00000320: 7241 1f3d 7c21 dabc 238b e2bd ca99 87bd
00000330: 53ed 003e ce39 273e a7fe bbbd 10f1 69bd
00000340: 2b80 07be c007 21be a8b1 633c 90fa 88bd
00000350: c589 ee3d f641 0e3c c842 67bd cd01 973c
00000360: 8f42 3cbd ff2f e5bc 381f 763d 087b 11be
00000370: 125a 3abe e586 913d 2cae e8bb 0926 c23d
00000380: 3c54 b03d 4fd6 aabd ac16 b63d 1475 223e
00000390: 31e9 e03c 32da ad3d 9735 babe ea3d 2abd
000003a0: 677b 16be 767e 8c3e 1c01 cebd 665f 47be
000003b0: 3271 653c 91a4 533e ee2d 22be 5035 e6bd
000003c0: 1448 2fbc cda1 b6bd 815d 16bc 4259 153e
000003d0: 824f d13d 3980 cebc b53c be3c 7fc6 b2bd
000003e0: 5ceb 073e 2af8 3f3d 6a7c 81bd 0c2a 7d3d
000003f0: 0121 a0bd 039c 06be e501 b63d a10b 953c

actor_fc1.bias f4 [64]
-0.13461927 0.2092608 -0.10641396 -0.17608994 0.17593707 0.12915719 0.049579352 0.13247602
-0.041702963 0.007230149 -0.15382951 0.03266485 -0.033456247 -0.01875334 -0.103283204 -0.17691725
-0.118988045 -0.037717074 -0.015258394 0.09776009 -0.1776285 0.08620874 -0.046550494 0.22762474
-0.0032592174 0.08282577 -0.13363348 -0.09381834 0.08707961 -0.11985039 -0.1748199 -0.002592784
0.0010527412 -0.10943538 0.17171317 0.10161327 -0.0455824 0.0719441 0.07072977 0.031076659
-0.18718374 0.08742484 -0.17227064 0.014466346 -0.18421952 -0.07877925 0.06001058 0.121193476
0.09568572 -0.03933106 -0.051055748 0.042210143 0.032167528 0.054036673 0.031419776 -0.17110522
0.13338605 0.082308106 -0.18292704 -0.14900354 0.037666753 -0.10251231 -0.08102772 0.11121577
00000000: a2d9 09be 7748 563e 90ef d9bd ec50 34be
00000010: d928 343e c841 043e b813 4b3d cba7 073e
00000020: bad0 2abd e3ea ec3b 7c85 1dbe 94cb 053d
00000030: 6b09 09bd 9ba0 99bc 2586 d3bd cc29 35be
00000040: 01b0 f3bd 387d 1abd 58fe 79bc 7136 c83d
00000050: 3fe4 35be 358e b03d bbab 3ebd 7616 693e
00000060: 9898 55bb 8fa0 a93d 37d7 08be d423 c0bd
00000070: cb56 b23d 1f74 f5bd fd03 33be b2eb 29bb
00000080: 22fc 893a a81f e0bd 94d5 2f3e 9e1a d03d
00000090: 9cb4 3abd 6e57 933d c5da 903d 7a94 fe3c
000000a0: 18ad 3fbe cb0b b33d b767 30be 4104 6d3c
000000b0: 0ba4 3cbe 0457 a1bd a7cd 753d 4934 f83d
000000c0: e0f6 c33d 9b19 21bd d51f 51bd 8be4 2c3d
000000d0: 19c2 033d 8f55 5d3d 06b2 003d 3536 2fbe
000000e0: 5a96 083e 2791 a83d 3a51 3bbe 6294 18be
000000f0: 7448 1a3d f9f1 d1bd dcf1 a5bd 18c5 e33d

actor_fc2.weight f4 [128, 64]
-0.020492064 0.012763276 0.14972715 0.06869406 -0.10129227 0.14077786 0.013255978 0.077195436
-0.005654416 -0.0921964 0.05632058 0.06894794 -0.08641252 0.009778406 -0.0006332325 -0.058656234
0.01300383 0.12459987 -0.11164376 -0.033584267 -0.16332325 -0.08563811 -0.13624044 0.028216153
-0.11414568 0.11315935 -0.07486045 -0.0917837 -0.05409943 -0.036792293 -0.01783635 -0.05329298
0.04128179 -0.049980566 -0.08005232 -0.07420159 0.034579363 -0.10065981 -0.07138116 -0.06687463
-0.09446406 0.054948956 0.07157381 -0.018918183 0.022595206 -0.14810401 0.044130802 -0.010850025
0.135789 0.026407473 -0.010255675 0.077857986 0.090570666 0.07518943 -0.098338895 0.043864634
0.08995643 -0.0021278798 0.15154411 0.040764708 -0.0058718272 0.10749749 -0.009315478 -0.04481658
-0.012911113 -0.011335191 0.12495098 -0.0041758255 0.122673884 -0.044458196 0.08225916 -0.0081852535
-0.1423074 0.10680685 0.026647344 0.068407156 0.05550656 -0.001791976 -0.13511977 -0.030402273
0.055525485 -0.089430965 0.06899979 -0.069443986 -0.17571793 -0.094429746 0.009413058 -0.08002764
-0.24759763 0.17461745 -0.022337427 0.029182805 -0.03333163 -0.053801145 0.1676321 -0.052728735
-0.05697625 0.025471225 -0.016828341 0.030941801 0.061180998 -0.12198953 0.016715957 -0.02097094
-0.0072754896 0.11724392 0.12806283 0.098881535 -0.02261983 -0.10206915 0.06475117 -0.1355761
0.1525826 0.09938616 -0.13476774 -0.041503217 0.08658136 -0.10300443 0.09452103 0.0040014316
0.098845094 0.03320624 0.13105097 -0.018684361 0.09369104 0.04831853 -0.07766142 -0.09425458
0.031028906 0.10110601 -0.11179766 -0.06579759 -0.12434544 -0.0257605 -0.10965785 -0.022897575
-0.002227852 0.10925609 -0.048402507 0.047370862 -0.10195106 0.029299436 0.066129915 0.035461027
-0.04506794 0.16798156 -0.12733817 0.0005027956 -0.04437634 0.046991777 0.06995753 0.035705987
-0.033891797 -0.101200216 0.021417411 -0.083245836 -0.10754924 0.0119581055 0.02426179 -0.18894008
0.049327742 -0.16590558 -0.05978508 -0.1512975 0.14670663 -0.0094802575 -0.05491681 -0.13768172
0.11524843 -0.13082519 -0.1185566 0.076349765 -0.062171526 -0.04574672 -0.025693199 -0.09679165
-0.042664234 -0.08385161 -0.17826205 0.051746465 -0.012261412 -0.058267962 -0.10384176 0.067353696
0.018532403 0.08778106 0.12381611 -0.15615636 0.0492944 -0.123827666 0.099300906 0.06824378
-0.118219554 -0.049254727 0.12081482 -0.10596093 0.17504239 0.047436424 0.03904134 -0.14605612
-0.14782701 0.20813006 0.09587847 -0.008820121 -0.14918788 -0.085016705 -0.09525846 0.08084633
-0.016775431 -0.20777777 0.087399036 0.058885925 0.066060945 0.05029264 -0.09823695 -0.018560525
0.052017402 -0.051503327 -0.06349877 0.03992222 -0.09968548 -0.045036077 0.14112945 -0.06414814
0.046306174 -0.15445186 -0.13682923 0.023235593 0.1380009 -0.036187243 -0.0176579 -0.014729535
-0.058731467 0.052782744 -0.044707477 0.016919097 0.0028504238 -0.018106043 0.14200944 -0.062840484
0.0015273506 -0.10170289 -0.1786273 0.0017152356 -0.02675058 0.24491535 0.17543635 0.114025764
0.010703991 -0.012492866 0.16727486 0.0019873844 -0.119173445 0.10324631 -0.060950633 0.12606163
00000000: f9de a7bc 0f1d 513c 1352 193e 79af 8c3d
00000010: 5272 cfbd 1228 103e 9a2f 593c a418 9e3d
00000020: ae48 b9bb 77d1 bcbd 69b0 663d 9434 8d3d
00000030: 0cf9 b0bd 9b35 203c 84ff 25ba 8541 70bd
00000040: 040e 553c 372e ff3d 7ca5 e4bd a88f 09bd
00000050: 363e 27be 0963 afbd 9d82 0bbe 9025 e73c
00000060: 36c5 e9bd 17c0 e73d 7050 99bd 18f9 bbbd
00000070: 5d97 5dbd 84b3 16bd 891d 92bc bd49 5abd
00000080: 1817 293d 6cb8 4cbd 79f2 a3bd 01f7 97bd
00000090: 17a3 0d3d bb26 cebd 4930 92bd 91f5 88bd
000000a0: 6076 c1bd 2812 613d 4a95 923d 4efa 9abc
000000b0: 9519 b93c 94a8 17be 80c2 343d 4ec4 31bc
000000c0: 460c 0b3e 7c54 d83c 6b07 28bc 0274 9f3d
000000d0: 1d7d b93d eafc 993d e765 c9bd 67ab 333d
000000e0: 143b b83d e673 0bbb 612e 1b3e e5f8 263d
000000f0: 7568 c0bb a527 dc3d f29f 18bc 9791 37bd
00000100: 2289 53bc 3db7 39bc 4de6 ff3d 5dd5 88bb
00000110: 723c fb3d cc19 36bd 7e77 a83d 711b 06bc
00000120: 08b9 11be 8dbd da3d 884b da3c 0d19 8c3d
00000130: d95a 633d bde0 eaba d65c 0abe 300e f9bc
00000140: b16e 633d 9527 b7bd c34f 8d3d a638 8ebd
00000150: 67ef 33be 6264 c1bd 3a39 1a3c 88e5 a3bd
00000160: 3c8a 7dbe ebce 323e fbfc b6bc c710 ef3c
00000170: bf86 08bd 975e 5cbd c0a7 2b3e 16fa 57bd
00000180: ee5f 69bd 08a9 d03c 97db 89bc a979 fd3c
00000190: ed98 7a3d a6d5 f9bd e7ef 883c 40cb abbc
000001a0: 3b67 eebb 951d f03d e722 033e 6782 ca3d
000001b0: 394d b9bc a109 d1bd 439c 843d 76d4 0abe
000001c0: 9d3e 1c3e f98a cb3d 8e00 0abe 47ff 29bd
000001d0: 9151 b13d fdf3 d2bd 3e94 c13d 711e 833b
000001e0: 4c6f ca3d 4403 083d 3a32 063e f20f 99bc
000001f0: 17e1 bf3d a7e9 453d f30c 9fbd 8c08 c1bd
00000200: 5530 fe3c ab10 cf3d 2cf6 e4bd e3c0 86bd
00000210: d2a8 febd af07 d3bc 4b94 e0bd b293 bbbc
00000220: 2701 12bb a8c1 df3d b541 46bd f307 423d
00000230: b8cb d0bd 5f05 f03c 1f6f 873d 953f 113d
00000240: 2999 38bd 5c03 2c3e f064 02be 0bce 033a
00000250: f7c3 35bd 737a 403d e545 8f3d 7140 123d
00000260: 20d2 0abd 0f42 cfbd 9173 af3c cb7c aabd
00000270: c742 dcbd eeeb 433c a9c0 c63c 8279 41be
00000280: e30b 4a3d 27e3 29be 33e1 74bd bbed 1abe
00000290: 433a 163e 1553 1bbc 73f0 60bd 70fc 0cbe
000002a0: 5e07 ec3d 0af7 05be cdcd f2bd 445d 9c3d
000002b0: 92a7 7ebd ea60 3bbd 8b7a d2bc b33a c6bd
000002c0: b1c0 2ebd 65ba abbd 548a 36be 1af4 533d
000002d0: 17e4 48bc 63aa 6ebd fdaa d4bd bcf0 893d
000002e0: 44d1 973c 8ec6 b33d 4d93 fd3d 74e7 1fbe
000002f0: ede8 493d 5c99 fdbd 465e cb3d 65c3 8b3d
00000300: 181d f2bd 53bf 49bd c36d f73d 0b02 d9bd
00000310: 503e 333e b24c 423d d0e9 1f3d bc8f 15be
00000320: f75f 17be 0c20 553e ee5b c43d 4582 10bc
00000330: b5c4 18be 3d1d aebd de16 c3bd c392 a53d
00000340: a16c 89bc b2c3 54be 44fe b23d 5e32 713d
00000350: f64a 873d a8ff 4d3d 7430 c9bd 3e0c 98bc
00000360: 3310 553d 27f5 52bd a50b 82bd 7b85 233d
00000370: e727 ccbd c077 38bd 3d84 103e 1a60 83bd
00000380: 8bab 3d3d a128 1ebe f61c 0cbe 9258 be3c
00000390: 1c50 0d3e 1339 14bd 4da7 90bc 2654 71bc
000003a0: 6890 70bd b832 583d 301f 37bd eb99 8a3c
000003b0: 2dce 3a3b 2053 94bc ec6a 113e 83b2 80bd
000003c0: 6231 c83a 9b49 d0bd 13ea 36be c2d1 e03a
000003d0: 0824 dbbc 17cb 7a3e 96a5 333e 5786 e93d
000003e0: cb5f 2f3c e1ae 4cbc 1a4a 2b3e c73e 023b
000003f0: 3511 f4bd cd72 d33d 5fa7 79bd 4d16 013e

actor_fc2.bias f4 [128]
0.05272583 -0.102642484 0.012124143 -0.057107605 -0.0030597996 0.031004986 -0.13135104 -0.0970825
-0.15272115 -0.015760496 0.022734297 -0.14259659 -0.09120679 -0.021957844 0.0024795118 -0.03225299
-0.10386276 -0.07108944 -0.028926263 -0.15573488 -0.1093222 0.11144272 -0.0799399 0.0049639107
-0.09147413 0.0044886554 -0.15374786 -0.1017792 -0.12575364 0.04674283 0.007819469 0.04374228
-0.06560322 -0.11644855 0.037634887 -0.12684073 -0.11224234 -0.05553633 0.022885414 0.022602279
0.023835039 0.01097755 -0.06809691 0.00031219257 -0.11764162 -0.022782909 0.0393516 0.0656956
0.05967579 -0.1004381 -0.049041737 -0.080426864 -0.038970638 0.12894894 -0.023165515 -0.14786603
-0.14397696 0.052166183 0.012145815 -0.05257147 -0.08328658 0.022945534 0.022188056 -0.09287267
0.068806276 -0.047928642 -0.11665174 -0.042001214 0.075393654 0.011794223 0.026918646 -0.09922394
0.006003209 -0.067303754 0.005415695 -0.07218519 -0.11131452 -0.018612891 -0.11642051 -0.076731905
0.06682997 0.07281619 0.06963903 0.0046286667 0.10746842 0.0047026807 -0.12737466 -0.04692927
-0.040980417 0.06310639 0.07103853 -0.15095259 -0.10912238 -0.03223421 0.055572625 0.0661239
-0.14379342 -0.03286866 0.059566807 -0.13394476 0.07504798 0.0912485 0.11622946 0.0656123
0.0017581608 0.009524029 0.03194964 -0.07202718 -0.10953132 0.09313167 0.023388444 0.05603642
-0.122384936 -0.02498275 0.032925703 -0.03790383 -0.008927774 0.018689089 -0.022134349 0.0658613
0.08588148 0.096723266 0.023378463 -0.03607405 -0.181593 0.063720554 0.032652874 0.021559864
00000000: 0af7 573d 3936 d2bd 57a4 463c aae9 69bd
00000010: eb86 48bb 2bfe fd3c e380 06be 31d3 c6bd
00000020: ef62 1cbe 281c 81bc 473d ba3c d704 12be
00000030: a0ca babd f0e0 b3bc 4e7f 223b b61b 04bd
00000040: 00b6 d4bd 5797 91bd c5f6 ecbc f778 1fbe
00000050: 51e4 dfbd 153c e43d 88b7 a3bd 4da8 a23b
00000060: ca56 bbbd 9215 933b 1470 1dbe 9d71 d0bd
00000070: 90c5 00be 6975 3f3d 3b1d 003c 1b2b 333d
00000080: fb5a 86bd 947c eebd 0a27 1a3d 89e2 01be
00000090: 50df e5bd 107a 63bd 317a bb3c 6a28 b93c
000000a0: b341 c33c 2fdb 333c 6576 8bbd c7ad a339
000000b0: 17ee f0bd 39a3 babc 252f 213d 6a8b 863d
000000c0: 9a6e 743d 7eb2 cdbd fddf 48bd d7b6 a4bd
000000d0: ad9f 1fbd 310b 043e 9bc5 bdbc 316a 17be
000000e0: b26e 13be 35ac 553d 3eff 463c 2f55 57bd
000000f0: 2892 aabd 46f8 bb3c bac3 b53c 0734 bebd
00000100: 4eea 8c3d d350 44bd 1ce7 eebd 7709 2cbd
00000110: fd67 9a3d 8f3c 413c 7e84 dc3c ec35 cbbd
00000120: 91b6 c43b 8dd6 89bd 2476 b13b d4d5 93bd
00000130: def8 e3bd 107a 98bc e06d eebd 9e25 9dbd
00000140: 27de 883d a820 953d e89e 8e3d 12ac 973b
00000150: 6718 dc3d f218 9a3b 816e 02be e838 40bd
00000160: 15db 27bd ec3d 813d a67c 913d 5193 1abe
00000170: 8e7b dfbd 0508 04bd 1fa0 633d f86b 873d
00000180: 953e 13be 4aa1 06bd 53fc 733d d128 09be
00000190: c1b2 993d 7ee0 ba3d b609 ee3d be5f 863d
000001a0: 1672 e63a ac0a 1c3c a0dd 023d fc82 93bd
000001b0: f551 e0bd d1bb be3d 1f99 bf3c 7286 653d
000001c0: f4a4 fabd a0a8 ccbc 1add 063d 0c41 1bbd
000001d0: cc45 12bc dc19 993c 1853 b5bc 4ae2 863d
000001e0: a1e2 af3d d916 c63d 3184 bf3c 62c2 13bd
000001f0: 84f3 39be ec7f 823d 05bf 053d 509e b03c

actor_fc3.weight f4 [256, 128]
0.09480624 -0.012196385 -0.063189365 -0.015589465 0.15859151 0.00031282252 0.10895684 0.108065456
0.011703337 0.17961185 0.029419154 -0.044871986 -0.013846249 -0.06628719 -0.013842385 0.040860835
-0.050732438 0.080413334 -0.1407995 -0.10128547 0.061937284 0.05703017 0.120481 0.033333287
-0.017868914 0.084268354 0.15484697 -0.06300194 0.0631708 -0.026112689 0.11638403 -0.019548386
-0.100210786 0.07208896 0.012963167 -0.020833602 0.090660475 0.0484168 -0.1350341 -0.08500446
0.054266997 0.07852202 -0.022524575 0.117968306 0.09567282 0.018288136 -0.114689656 -0.04887204
0.0014301664 -0.007059857 0.1245604 -0.11560975 -0.03133067 0.00041935025 0.008582617 -0.012873177
-0.11884473 0.045594785 0.057235304 -0.09260289 0.19582205 0.09682684 0.12859792 -0.08527268
0.054002587 -0.057628915 -0.08120461 -0.080491595 0.02621349 0.053679388 -0.009539888 0.030939663
0.13304281 0.0937136 -0.05535528 0.021647898 0.076778315 0.12994947 -0.08824533 -0.059306826
0.062323593 0.02177269 0.016940525 0.018289166 -0.09105639 0.060709916 -0.035288762 0.0009909301
0.021321917 -0.0005416667 -0.061181296 -0.06387241 -0.06343369 -0.04026116 -0.0017784188 -0.057811256
-0.059013013 -0.057993043 -0.06839984 0.028588606 -0.06536569 -0.038517985 -0.06072836 -0.11706145
0.13251843 -0.08540303 0.018204331 0.028275987 0.08164078 0.002239275 0.08543494 0.049622595
-0.053521946 0.060193714 -0.035418645 -0.003954905 -0.018477123 0.041427918 0.010234523 -0.087802604
0.086308815 0.037223816 -0.003741752 -0.005353358 -0.04643322 0.20985197 0.04044214 -0.07090411
-0.05625985 -0.12562132 0.0119643025 -0.013057869 -0.1480726 0.09184967 -0.112409905 -0.07033693
-0.030465493 0.044659626 -0.007699421 0.04175055 0.04290464 -0.016402768 0.09022304 -0.04445017
-0.08032576 0.017356254 -0.031180242 -0.08142533 -0.025159469 0.1306591 -0.030660441 -0.01562799
0.028494162 -0.1743994 0.04697461 -0.031954892 -0.021801336 -0.024374733 0.0033028775 -0.014642409
0.003906483 -0.041950993 -0.030554956 0.023127554 0.06159434 -0.101830386 0.056621082 0.032494914
0.095752425 -0.04557763 -0.031559806 0.04053477 0.05035841 0.09067098 0.13756153 -0.012629396
0.14073382 -0.076069675 0.10856599 -0.07081491 -0.019736862 -0.08894451 -0.014454173 0.040049948
0.023523927 0.094425134 -0.09238174 -0.015586428 -0.12278354 -0.05730547 0.11058574 -0.06617845
-0.07323305 -0.022254778 0.08517996 0.015984708 0.019326527 0.031529088 0.1415693 0.019316472
0.04693384 -0.096565604 0.07460074 -0.0080401385 -0.011889591 0.071667105 -0.07559219 -0.0072236117
-0.02493715 -0.007600091 -0.01953053 -0.079625964 -0.021144684 0.1061046 0.07229872 0.039612524
0.039975584 -0.05312352 0.15682624 -0.06689747 -0.047875695 0.014262074 0.03604038 -0.048923746
0.005943377 -0.04455924 -0.050218336 0.046092693 -0.014586355 -0.01600538 0.16803882 -0.058326483
0.0033359537 -0.003464154 -0.017845105 0.015210777 0.040445745 0.066599086 0.011525156 0.028385669
-0.04084177 -0.032439023 -0.015765086 -0.015310215 -0.024473324 0.10214604 0.15198776 -0.009238262
-0.05751791 0.045381255 0.036440045 -0.008634909 -0.04454294 -0.06918929 -0.046461664 0.007982177
00000000: c629 c23d 59d3 47bc 6d69 81bd f56a 7fbc
00000010: d065 223e 5402 a439 c424 df3d 6c51 dd3d
00000020: 5abf 3f3c 2bec 373e 7000 f13c b0cb 37bd
00000030: 61db 62bc 94c1 87bd 2ccb 62bc b15d 273d
00000040: d1cc 4fbd bfaf a43d be2d 10be c26e cfbd
00000050: f3b1 7d3d 7898 693d bebe f63d 7c88 083d
00000060: d461 92bc e394 ac3d 3490 1e3e 2907 81bd
00000070: b15f 813d 47ea d5bc c05a ee3d f023 a0bc
00000080: 503b cdbd 60a3 933d 7763 543c 3bab aabc
00000090: 33ac b93d b250 463d 6146 0abe d116 aebd
000000a0: 1247 5e3d 27d0 a03d 7585 b8bc 5e99 f13d
000000b0: 1df0 c33d 00d1 953c 69e2 eabd 0c2e 48bd
000000c0: 6c74 bb3a 5f56 e7bb 8619 ff3d cec4 ecbd
000000d0: 9754 00bd 3ddc db39 1b9e 0c3c 05ea 52bc
000000e0: de64 f3bd 99c1 3a3d 916f 6a3d 96a6 bdbd
000000f0: 9385 483e 264d c63d 2caf 033e 71a3 aebd
00000100: d131 5d3d 4c0c 6cbd 9a4e a6bd c7d8 a4bd
00000110: acbd d63c ebde 5b3d 314d 1cbc 2d75 fd3c
00000120: 603c 083e eaec bf3d 38bc 62bd ef56 b13c
00000130: f33d 9d3d 7911 053e f8b9 b4bd b7eb 72bd
00000140: 0647 7f3d a45c b23c dbc6 8a3c 29d3 953c
00000150: c67b babd f6aa 783d f38a 10bd 19e2 813a
00000160: 4dab ae3c a3fe 0dba 3d99 7abd 8acf 82bd
00000170: 86e9 81bd e3e8 24bd d519 e9ba 7fcb 6cbd
00000180: a1b7 71bd 1d8a 6dbd 3715 8cbd a732 ea3c
00000190: 72de 85bd 09c5 1dbd 4dbe 78bd eabd efbd
000001a0: e9b2 073e c9e7 aebd 4021 953c 0ba3 e73c
000001b0: 4833 a73d cdc0 123b 84f8 ae3d 1041 4b3d
000001c0: d439 5bbd af8d 763d 2413 11bd 2698 81bb
000001d0: 565d 97bc 52b0 293d b3ae 273c dad1 b3bd
000001e0: adc2 b03d 0078 183d 2e38 75bb 396b afbb
000001f0: c330 3ebd 6fe3 563e a8a6 253d 2d36 91bd
00000200: ba70 66bd e0a2 00be ec05 443c acf0 55bc
00000210: 58a0 17be ae1b bc3d 2a37 e6bd cf0c 90bd
00000220: c592 f9bc 03ed 363d 6d4b fcbb a002 2b3d
00000230: c7bc 2f3d 195f 86bc dbc6 b83d 6211 36bd
00000240: d581 a4bd b42e 8e3c b56d ffbc 53c2 a6bd
00000250: 3b1b cebc 80cb 053e 9b2b fbbc 4506 80bc
00000260: 976c e93c c295 32be 7368 403d 22e3 02bd
00000270: b798 b2bc 85ad c7bc 1775 583b b7e6 6fbc
00000280: f401 803b ced4 2bbd 634e fabc ff75 bd3c
00000290: 594a 7c3d 738c d0bd 82eb 673d 6319 053d
000002a0: d919 c43d 9caf 3abd db44 01bd c907 263d
000002b0: 9f44 4e3d b5b1 b93d eedc 0c3e 87eb 4ebc
000002c0: 871c 103e 6bca 9bbd d957 de3d 6807 91bd
000002d0: 33af a1bc 8a28 b6bd 32d1 6cbc 6a0b 243d
000002e0: 40b5 c03c f761 c13d a332 bdbd 385e 7fbc
000002f0: f075 fbbd 24b9 6abd c77a e23d 9188 87bd
00000300: 36fb 95bd a74f b6bc d572 ae3d 5df2 823c
00000310: aa52 9e3c a524 013d 8bf7 103e 943d 9e3c
00000320: b33d 403d 30c4 c5bd 46c8 983d c9ba 03bc
00000330: 8fcc 42bc 34c6 923d 14d0 9abd 0cb4 ecbb
00000340: fe48 ccbc 2f0a f9bb 7dfe 9fbc f012 a3bd
00000350: 9e37 adbc 5e4d d93d 5a11 943d be40 223d
00000360: 70bd 233d 0c98 59bd 0f97 203e 8a01 89bd
00000370: 4e19 44bd 79ab 693c 149f 133d 4464 48bd
00000380: a9c0 c23b c083 36bd beb1 4dbd b1cb 3c3d
00000390: 9bfb 6ebc b71d 83bc 5e12 2c3e c0e7 6ebd
000003a0: 04a0 5a3b dc06 63bb e62f 92bc 9f36 793c
000003b0: 70aa 253d 1a65 883d 02d4 3c3c 1089 e83c
000003c0: b349 27bd c8de 04bd c825 81bc b2d7 7abc
000003d0: 487c c8bc f131 d13d aea2 1b3e 145c 17bc
000003e0: e697 6bbd b2e1 393d 2842 153d 6f79 0dbc
000003f0: a872 36bd 1db3 8dbd 964e 3ebd adc7 023c

actor_fc3.bias f4 [256]
0.0057836724 0.0008754064 0.0024492992 0.03608489 0.077812426 0.057041537 0.033732943 0.027075313
0.0066999467 -0.11286027 0.022780191 -0.020020917 0.032787945 -0.0045295646 -0.0061601065 0.08406868
-0.02942419 0.045315396 0.04998807 0.035141602 -0.02079883 0.0107199205 -0.0034606375 0.021515366
-0.08141008 0.111158006 -0.0029696673 -0.063493714 -0.09269639 0.056415793 0.07438856 0.0020507674
-0.078822464 0.10668885 0.040022306 0.06672166 0.043436084 -0.061666694 -0.053921055 0.09831608
-0.025556618 0.0051673185 -0.05101596 -0.04517227 0.052504513 0.097022444 0.10843504 -0.014431988
0.033269916 0.105081044 -0.10037247 0.0067820046 -0.023912108 -0.06884632 -0.08031606 -0.08991338
0.083914444 0.063904256 -0.07097599 0.040412508 -0.056073524 0.082058884 0.10171715 0.06048811
0.045633882 0.05940504 -0.06529643 0.040426943 -0.0329771 0.039327197 0.018295946 0.0024116419
0.024735399 0.0048068655 0.07948376 0.08741941 -0.08557015 0.03371356 0.071539484 0.055329245
0.09775068 -0.00082741346 0.06949136 -0.022793787 0.020279089 0.0029139488 0.0015612545 -0.10923852
-0.06555093 -0.027854573 -0.07738556 0.010515589 -0.009356768 0.09955768 -0.05251002 0.042024296
0.024225239 0.112297714 0.079133965 0.04567928 -0.07662046 -0.021799738 -0.07663049 -0.00792737
0.0880464 -0.11398289 -0.07972201 -0.00035200597 -0.0049833013 -0.064748004 -0.11876575 0.13278213
0.0015561557 0.059243858 -0.025983226 0.07027339 0.020048551 0.09406005 -0.09716319 -0.052141123
-0.066780284 0.10362982 -0.036243096 -0.060243834 -0.07589617 0.07777809 0.049351484 0.061729047
-0.097580984 -0.054568376 0.064572394 0.024736494 -0.097368605 -0.03827713 0.09212182 -0.14813025
0.00069513824 -0.05790706 0.035169218 -0.027676566 -0.008141183 -0.035069972 -0.03918302 0.077368826
0.009611685 -0.026749961 0.11518149 -0.10070507 -0.080687396 -0.074841306 0.06429878 0.03908296
0.07761624 -0.016917655 0.006763297 0.076919764 0.014633538 -0.0060420088 -0.03396232 -0.08475702
0.034918137 -0.046986815 0.035332978 -0.096933395 0.10175485 -0.088680595 -0.01218298 0.0063122297
0.009524348 -0.034199238 1.29026575e-05 -0.021629235 -0.049622167 -0.07511967 0.016292347 -0.035925537
-0.09680967 0.10100092 0.06260737 -0.03588284 0.027384263 0.07961711 -0.068187 0.047746878
-0.0049042962 0.04208446 -0.083192065 -0.04947825 -0.0067070397 -0.07193984 0.018529395 0.013112995
0.0020078865 0.025926903 0.064458735 0.057199374 -0.025159648 0.067434795 0.06896413 -0.11602129
0.012301664 -0.02903707 0.010131585 -0.12217807 -0.08003793 0.03643414 0.019019702 0.061684456
-0.040071353 0.0006755067 -0.06029415 0.052620467 0.040754877 -0.027294612 0.029802006 0.03238164
0.1126145 0.043484006 0.07455672 0.03770653 0.019916032 0.038273223 -0.045396518 -0.040980686
-0.04787565 -0.019329168 -0.120541014 -0.04203804 0.0037989262 0.001890627 0.01768471 0.045978587
-0.0067093703 -0.017677624 0.0010966472 0.016171867 0.011108096 0.028468944 -0.014716271 -0.0070666033
0.0736124 -0.035295427 -0.08295991 0.02538403 -0.032538522 0.10825618 0.08793716 -0.014944009
0.10944104 -0.06528053 -0.0497277 0.049187843 -0.05935261 -0.03709978 -0.055638965 0.03365107
00000000: f684 bd3b 877b 653a 6c84 203b c0cd 133d
00000010: 1f5c 9f3d 63a4 693d 8e2b 0a3d 0ccd dd3c
00000020: 3a8b db3b 4923 e7bd 869d ba3c e802 a4bc
00000030: a74c 063d be6c 94bb b8da c9bb 332c ac3d
00000040: 000b f1bc a39c 393d 4ac0 4c3d a4f0 0f3d
00000050: 4f62 aabc 9ba2 2f3c ddcb 62bb fe40 b03c
00000060: 54ba a6bd cfa6 e33d c09e 42bb fe08 82bd
00000070: 9bd7 bdbd 3f14 673d 0859 983d 2b66 063b
00000080: ac6d a1bd af7f da3d 6eee 233d 5ea5 883d
00000090: 09ea 313d 3796 7cbd 53dc 5cbd f159 c93d
000000a0: 1d5c d1bc 9c52 a93b 1cf6 50bd 8f06 39bd
000000b0: f90e 573d b4b3 c63d 3113 de3d 2574 6cbc
000000c0: 0946 083d bb34 d73d 1590 cdbd 943b de3b
000000d0: 53e3 c3bc 4dff 8cbd bf7c a4bd 8224 b8bd
000000e0: 56db ab3d 3ce0 823d dc5b 91bd 9687 253d
000000f0: 5aad 65bd 7d0e a83d 1551 d03d 61c2 773d
00000100: 98ea 3a3d b352 733d 22ba 85bd b996 253d
00000110: ff12 07bd 8e15 213d 61e1 953c a30c 1e3b
00000120: e4a1 ca3c e982 9d3b 62c8 a23d f308 b33d
00000130: 673f afbd 3b17 0a3d 4b83 923d eba0 623d
00000140: 8231 c83d c7e6 58ba 7c51 8e3d 09ba babc
00000150: 5520 a63c f3f7 3e3b 02a3 cc3a 72b8 dfbd
00000160: 913f 86bd 462f e4bc 527c 9ebd 9449 2c3c
00000170: 214d 19bc e6e4 cb3d bf14 57bd ab21 2c3d
00000180: 0274 c63c 58fc e53d fd10 a23d 321a 3b3d
00000190: 30eb 9cbd 5d95 b2bc 72f0 9cbd cde1 01bc
000001a0: ac51 b43d dd6f e9bd 4b45 a3bd 718d b8b9
000001b0: f64a a3bb 9a9a 84bd 753b f3bd 0af8 073e
000001c0: ecf7 cb3a b0a9 723d c6da d4bc 7feb 8f3d
000001d0: dc3c a43c 8ea2 c03d 7ffd c6bd ee91 55bd
000001e0: 1ac4 88bd df3b d43d a473 14bd 3dc2 76bd
000001f0: 746f 9bbd 1f4a 9f3d c824 4a3d 99d7 7c3d
00000200: 8ad8 c7bd 1783 5fbd 883e 843d 30a4 ca3c
00000210: 3169 c7bd 7bc8 1cbd 5daa bc3d 75af 17be
00000220: f039 363a f42f 6dbd 990d 103d f7b9 e2bc
00000230: 9962 05bc 88a5 0fbd 607e 20bd 8c73 9e3d
00000240: 547a 1d3c bc22 dbbc 46e4 eb3d 763e cebd
00000250: 6f3f a5bd 6646 99bd 14af 833d 7415 203d
00000260: 43f5 9e3d e596 8abc a69e dd3b 1c88 9d3d
00000270: 82c1 6f3c 0bfc c5bb 131c 0bbd 1795 adbd
00000280: 5206 0f3d 3f75 40bd 50b9 103d 0485 c6bd
00000290: d964 d03d 2c9e b5bd 1f9b 47bc d2d6 ce3b
000002a0: 030c 1c3c 8014 0cbd 7e78 5837 cb2f b1bc
000002b0: 9d40 4bbd 57d8 99bd 8777 853c a826 13bd
000002c0: 2644 c6bd 92d9 ce3d 4b38 803d e3f9 12bd
000002d0: f654 e03c 4c0e a33d a0a5 8bbd 3b92 433d
000002e0: 38b4 a0bb c160 2c3d 9a60 aabd b5a9 4abd
000002f0: bac6 dbbb 3255 93bd f5ca 973c e3d7 563c
00000300: bf96 033b a864 d43c f102 843d e449 6a3d
00000310: 9b1b cebc 411b 8a3d 113d 8d3d 929c edbd
00000320: eb8c 493c 26df edbc f3fe 253c 7f38 fabd
00000330: edea a3bd f73b 153d 35cf 9b3c d7a8 7c3d
00000340: dc21 24bd 7d14 313a 00f7 76bd 8f88 573d
00000350: 96ee 263d f398 dfbc 5623 f43c 9ca2 043d
00000360: 6ea2 e63d 491c 323d 32b1 983d 2a72 1a3d
00000370: f226 a33c 62c4 1c3d b3f1 39bd 5ddb 27bd
00000380: 4219 44bd 3458 9ebc 35de f6bd 1430 2cbd
00000390: 68f7 783b eace f73a 86df 903c 0b54 3c3d
000003a0: 47da dbbb aad0 90bc 60bd 8f3a dd7a 843c
000003b0: bbfe 353c b437 e93c 841c 71bc f78e e7bb
000003c0: 19c2 963d f091 10bd e3e6 a9bd 2bf2 cf3c
000003d0: 1d47 05bd 6bb5 dd3d 6618 b43d b7d7 74bc
000003e0: a022 e03d ccb1 85bd 46af 4bbd 3179 493d
000003f0: b91b 73bd f0f5 17bd afe5 63bd b4d5 093d

actor_fc4.weight f4 [4, 256]
0.04725574 -0.048011713 -0.042423513 -0.05273562 0.12977014 0.123041674 -0.06518911 -0.060886044
0.082352236 0.007616098 0.00828417 -0.03926473 -0.09578243 0.039153174 -0.017053537 -0.058286704
-0.03908017 0.045364164 -0.029705193 -0.13670538 0.06419292 -0.0379035 -0.15603855 0.042116385
-0.045527417 -0.107793406 -0.06692856 -0.030936284 0.047203906 -0.09982234 0.019017275 0.08740203
0.10306165 0.21482639 -0.0022353358 -0.18120676 -0.073433295 0.14608029 -0.13624242 -0.03834749
-0.12217939 0.053838268 0.03226569 0.061379384 -0.0033519764 0.1607167 0.09659455 -0.093465194
-0.11957948 0.13440123 -0.02759198 -0.1552489 -0.021196846 -0.07012724 -0.012682224 -0.004444338
0.028220175 0.057298284 -0.059553444 0.029234681 -0.015838703 0.13481839 0.010479441 0.10453608
-0.019684138 -0.033796586 -0.08730564 -0.06094449 -0.0018983703 -0.026361793 -0.05481353 0.06653857
-0.029111492 -0.11889628 -0.08729399 -0.059118476 0.014940995 -0.05344034 -0.117543414 0.13704523
0.0676173 -0.15874504 -0.07230498 -0.06655291 -0.06661951 -0.08570467 -0.005948197 0.053914756
0.01940858 -0.062337164 -0.042413946 -0.002916764 0.04623064 -0.06473916 -0.0764698 -0.11317451
0.03902391 -0.109928176 -0.062873915 0.18117219 0.040347315 -0.021607507 -0.048985235 -0.041058302
0.04812596 0.00476811 -0.013577034 -0.051146496 -0.046356916 -0.0074185575 -0.015208525 -0.053594235
0.1762695 -0.005169668 0.019423952 -0.04061165 -0.044670172 -0.011286427 0.06370525 -0.024224326
0.0021137681 -0.0291812 0.021255475 -0.058049984 -0.01585461 0.041807838 -0.024169102 -0.10991359
0.014346694 -0.011797965 -0.1453381 0.11628611 0.10494591 0.005962705 0.078400366 -0.027324986
0.089590825 -0.081777714 0.05726493 -0.03826307 0.056985002 0.030291436 0.018726539 0.029082369
0.07017568 0.04789416 0.12526439 -0.04207789 0.047500476 0.005773947 -0.09299079 0.040489603
-0.007296867 0.0025521584 0.1861767 -0.046697475 -0.08433597 -0.022381919 -0.1693247 0.024390507
0.08821653 0.07750435 0.040064495 0.0708539 -0.2344381 -0.01223004 0.01375784 0.019261334
-0.014184856 -0.02233454 0.08978249 -0.020887146 0.16765042 0.0157399 0.008143784 -0.11765546
-0.0051084813 0.060044214 -0.10675689 -0.064414024 0.034206532 0.11734534 0.10429138 -0.05195116
-0.004014676 0.09484777 -0.009518064 -0.106815815 0.09496301 0.03702104 -0.0817045 0.06776105
0.022907417 0.014833013 -0.093381576 -0.1333902 -0.063627586 0.0414709 -0.013768055 -0.039449412
0.0046357946 -0.07519464 -0.01688085 0.09703393 0.011247006 0.04629434 -0.011693856 -0.13128585
-0.018762037 -0.032520365 -0.042432897 0.1192939 0.18961176 0.011503789 -0.040118452 -0.07292227
0.067954816 -0.06680985 -0.0075726225 0.11557858 -0.0011547784 -0.07916179 0.12152392 -0.0079498645
0.080673225 -0.008451472 0.031607848 0.0064773485 -0.082866915 -0.044633064 -0.030774798 0.10353891
-0.0013899044 -0.082922995 -0.018259993 -0.077744804 -0.06570588 0.06954789 -0.120047465 -0.0702263
-0.094398044 -0.088091604 -0.043734066 0.109939635 0.01643595 -0.052668683 -0.013054287 -0.06207825
0.05008336 0.063219294 -0.050670933 -0.0953277 -0.009108918 -0.10016933 0.041501097 0.0019016481
00000000: 3c8f 413d eea7 44bd 47c4 2dbd 4e01 58bd
00000010: 77e2 043e 46fd fb3d de81 85bd a563 79bd
00000020: 4aa8 a83d 7690 f93b 54ba 073c 0ed4 20bd
00000030: 9429 c4bd 145f 203d dcb3 8bbc 0abe 6ebd
00000040: 8712 20bd c6cf 393d 4e58 f3bc 7ffc 0bbe
00000050: 9477 833d b340 1bbd 92c8 1fbe 3b82 2c3d
00000060: f57a 3abd cac2 dcbd d711 89bd 176e fdbc
00000070: e258 413d a86f ccbd 1eca 9b3c d6ff b23d
00000080: fd11 d33d 73fb 5b3e b67e 12bb 448e 39be
00000090: 3264 96bd 1296 153e 2283 0bbe 4212 1dbd
000000a0: 3039 fabd 8485 5c3d 0729 043d f368 7b3d
000000b0: d5ac 5bbb eb92 243e 5dd3 c53d ae6a bfbd
000000c0: 16e6 f4bd 7aa0 093e 9308 e2bc 91f9 1ebe
000000d0: 02a5 adbc df9e 8fbd 1ac9 4fbc cfa1 91bb
000000e0: ff2d e73c 9bb1 6a3d 50ee 73bd 927d ef3c
000000f0: 2bc0 81bc d50d 0a3e f6b1 2b3c 0317 d63d
00000100: a140 a1bc 4a6e 0abd 4dcd b2bd eea0 79bd
00000110: bdd2 f8ba b0f4 d7bc 2784 60bd 6045 883d
00000120: 397b eebc e57f f3bd 31c7 b2bd 3726 72bd
00000130: 13cb 743c 42e4 5abd 9aba f0bd 9655 0c3e
00000140: f07a 8a3d 0f8e 22be a214 94bd e44c 88bd
00000150: cf6f 88bd ee85 afbd 18e9 c2bb b8d5 5c3d
00000160: befe 9e3c 4155 7fbd 3fba 2dbd 2e27 3fbb
00000170: 575c 3d3d f795 84bd 339c 9cbd 0ac8 e7bd
00000180: 89d7 1f3d 0622 e1bd 0ac4 80bd 3485 393e
00000190: 3a43 253d 3a02 b1bc bea4 48bd c02c 28bd
000001a0: ba1f 453d ce3d 9c3b 3572 5ebc fd7e 51bd
000001b0: c0e0 3dbd 5f17 f3bb 2d2d 79bc a185 5bbd
000001c0: fe7f 343e 5166 a9bb fb1e 9f3c 6758 26bd
000001d0: 12f8 36bd b5ea 38bc e677 823d 1872 c6bc
000001e0: 2587 0a3b 690d efbc f61f ae3c d2c5 6dbd
000001f0: 87e1 81bc b23e 2b3d 48fe c5bc 601a e1bd
00000200: 650e 6b3c 404c 41bc 83d3 14be 6927 ee3d
00000210: e2ed d63d cb62 c33b 5f90 a03d a6d8 dfbc
00000220: 657b b73d 137b a7bd a28e 6a3d bdb9 1cbd
00000230: 1b69 693d bf25 f83c 6668 993c 263e ee3c
00000240: 44b8 8f3d ab2c 443d 4f45 003e de59 2cbd
00000250: dc8f 423d 6133 bd3b f571 bebd 6dd8 253d
00000260: 8f1a efbb 1d42 273b 1ba5 3e3e da45 3fbd
00000270: 56b8 acbd 495a b7bc 7463 2dbe 9ace c73c
00000280: deaa b43d 9aba 9e3d ab1a 243d d91b 913d
00000290: 8b10 70be 8160 48bc 9068 613c f2c9 9d3c
000002a0: 9967 68bc edf6 b6bc e2df b73d 851b abbc
000002b0: 8dac 2b3e f6f0 803c 816d 053c 59f5 f0bd
000002c0: 0c65 a7bb ecf0 753d 5ba3 dabd 80eb 83bd
000002d0: 261c 0c3d c152 f03d b896 d53d bdca 54bd
000002e0: 8b8d 83bb 8c3f c23d a7f1 1bbc 40c2 dabd
000002f0: f77b c23d 60a3 173d b054 a7bd 4ec6 8a3d
00000300: 56a8 bb3c 2a06 733c d73e bfbd 7197 08be
00000310: 2e4f 82bd 64dd 293d 6893 61bc b595 21bd
00000320: dde7 973b a6ff 99bd b549 8abc bab9 c63d
00000330: 5d45 383c 229f 3d3d 9697 3fbc cc6f 06be
00000340: d8b2 99bc 1334 05bd 1ece 2dbd 5c50 f43d
00000350: 9629 423e 637a 3c3c 3f53 24bd 4558 95bd
00000360: e52b 8b3d 9ad3 88bd c323 f8bb 76b4 ec3d
00000370: ef5b 97ba 941f a2bd 88e1 f83d 2640 02bc
00000380: 0138 a53d 0b78 0abc 3b77 013d f03f d43b
00000390: 21b6 a9bd 29d1 36bd 6e1b fcbc 350c d43d
000003a0: 742d b6ba 88d3 a9bd fb95 95bc ab38 9fbd
000003b0: ce90 86bd 206f 8e3d 72db f5bd ced2 8fbd
000003c0: c353 c1bd 5f69 b4bd 7e22 33bd 0828 e13d
000003d0: afa4 863c 1ebb 57bd a6e1 55bc c345 7ebd
000003e0: 3624 4d3d 1e79 813d 538c 4fbd 2b3b c3bd
000003f0: 923d 15bc 9425 cdbd 0efd 293d b940 f93a

actor_fc4.bias f4 [4]
0.012707214 0.031196078 -0.09288904 -0.07023991
00000000: eb31 503c eb8e ff3c 9c3c bebd f1d9 8fbd

critic_fc1.weight f4 [64, 33]
0.18923774 0.033665556 -0.09164097 -0.29078013 0.03827167 -0.08298501 0.020788932 -0.025879808
0.22587064 0.16168305 0.037682522 -0.05934091 -0.051424894 -0.09216797 0.10885109 -0.06770153
-0.08492993 0.10418336 -0.10039081 0.10410419 -0.050421335 0.015086798 -0.025719868 0.039650675
0.04346788 0.060740225 0.010354085 0.04591981 0.031016408 0.17271982 -0.05047977 -0.16543923
-0.1033882 0.0063656797 0.10401476 0.014613206 -0.07904677 -0.046918742 0.05757714 -0.22478445
-0.026946317 0.24552989 -0.1964276 0.060256418 0.09091205 -0.0019761173 -0.019107928 0.272586
-0.13806435 0.22620204 -0.03504092 -0.0054649403 -0.1793468 -0.03413173 0.037195086 -0.009656517
-0.15221396 0.078134105 -0.0030274533 0.016207907 -0.057155587 0.023634199 -0.08246082 0.034979112
0.034673784 0.15579283 -0.10248936 -0.038482632 0.030323517 -0.111465886 -0.097880125 0.013326417
-0.111313656 -0.19051674 -0.13052636 0.062409025 0.072770245 5.5953693e-05 -0.012137353 0.016888669
0.104155555 0.28215083 -0.094651945 0.015333193 -0.013758501 -0.016921299 0.004852152 0.040335488
-0.1291456 0.31042773 -0.008587727 0.13809808 0.021819452 0.0031688882 -0.15397981 0.09995747
0.08663536 0.07940195 0.8975284 -0.086071335 -0.11789091 0.042986743 -0.007116492 0.1980726
-0.05641744 0.32391733 -0.0040945658 0.041941557 -0.07323244 0.022883145 -0.10601299 0.011345325
-0.102364354 0.13459189 0.13272314 -0.106455766 0.07503505 -0.09354959 -0.09860745 0.07013856
0.020304777 0.11997278 -0.006808382 0.06045076 -0.043524712 -0.0048877047 0.030322762 0.0893511
0.09730234 -0.05154272 -0.1342439 0.39784387 0.011788591 0.2080095 -0.22040899 -0.013520354
0.10980003 0.0106304055 -0.07423031 0.076474145 0.015764138 0.062469132 0.087618954 -0.024864612
0.02462226 0.25212896 -0.13387278 -0.03457942 0.137793 0.045490563 -0.0221129 -0.036450252
-0.0064045493 0.045685392 -0.07831413 0.13107377 0.0044784993 0.041516464 -0.12896831 -0.061786976
-0.035370342 0.12168701 -0.010658703 -0.04414954 -1.2541586 0.25291145 -0.051600773 0.36940196
0.0067835725 0.37466317 0.01927694 0.08001398 -0.051212683 0.09010311 -0.11777911 0.0952909
-0.01469252 0.006193001 -0.004678539 0.017421797 0.0318527 0.004197072 -0.06749511 0.08266683
-0.09399935 0.03134817 0.051175162 -0.10597599 -0.08307561 -0.003152554 -0.016839188 -0.047866672
0.18140422 -0.10070893 0.09885991 -0.16482876 0.15166712 -0.41645816 0.013372653 -0.056455757
-0.07364389 -0.15656868 0.014040799 -0.10391447 -0.051938146 -0.010097805 -0.11964897 0.028872523
0.042805858 -0.054164145 -0.03957491 0.14103873 -0.116860814 0.102759145 -0.05406709 -0.03850855
0.072014906 0.039204232 -0.030125128 0.017480448 -0.0031780787 0.16916566 -0.01700398 -0.03967446
-0.041312426 0.12656827 -0.08200297 -0.049395107 -0.049205337 -0.024307556 1.0003812 0.07203426
0.07690081 0.09080565 -0.11168769 -0.0076126964 -0.068215996 0.07605121 -0.06506257 0.035236537
-0.037201002 -0.002607426 -0.047746617 0.064368844 0.30864772 0.0934704 -0.03824666 -0.031174093
0.09773725 -0.17002754 0.099358484 -0.018210597 -0.011099611 -0.05382966 0.029990543 0.02680367
00000000: 8ac7 413e e5e4 093d 43ae bbbd 22e1 94be
00000010: c1c2 1c3d 0cf4 a9bd 8d4d aa3c e401 d4bc
00000020: a24a 673e 3e90 253e fd58 1a3d 740f 73bd
00000030: e9a2 52bd 90c2 bcbd 52ed de3d 1aa7 8abd
00000040: beef adbd 165e d53d b299 cdbd 9434 d53d
00000050: 9a86 4ebd 9e2e 773c 79b2 d2bc bf68 223d
00000060: 600b 323d beca 783d 2ea4 293c 6916 3c3d
00000070: 1f16 fe3c 77dd 303e e0c3 4ebd e768 29be
00000080: 31bd d3bd 3197 d03b b105 d53d 3a6c 6f3c
00000090: 46e3 a1bd de2d 40bd 02d6 6b3d e52d 66be
000000a0: 86be dcbc 306c 7b3e 5124 49be 6fcf 763d
000000b0: 1930 ba3d bf81 01bb 3b88 9cbc 6490 8b3e
000000c0: be60 0dbe 82a1 673e 1187 0fbd 3e13 b3bb
000000d0: b0a6 37be b7cd 0bbd e059 183d 5e36 1ebc
000000e0: fadd 1bbe c604 a03d 3d68 46bb 72c6 843c
000000f0: fa1b 6abd 829c c13c 38e1 a8bd 4246 0f3d
00000100: 1906 0e3d 2888 1f3e f1e5 d1bd f79f 1dbd
00000110: 0669 f83c 3a48 e4bd 6075 c8bd 0b57 5a3c
00000120: 6af8 e3bd d216 43be b4a8 05be 9ba0 7f3d
00000130: 9108 953d d2af 6a38 c0db 46bc 1b5a 8a3c
00000140: 824f d53d 1376 903e e1d8 c1bd 1338 7b3c
00000150: 566b 61bc 899e 8abc cdfe 9e3b d336 253d
00000160: bf3e 04be 62f0 9e3e 8ab3 0cbc 9569 0d3e
00000170: b5be b23c 1fad 4f3b e2ac 1dbe 81b6 cc3d
00000180: e16d b13d 7d9d a23d 6cc4 653f 2b46 b0bd
00000190: ca70 f1bd de12 303d 7631 e9bb 8bd3 4a3e
000001a0: f915 67bd 7ed8 a53e b52b 86bb e9ca 2b3d
000001b0: e4fa 95bd 6f75 bb3c 571d d9bd bee1 393c
000001c0: 67a4 d1bd 75d2 093e 93e8 073e 7b05 dabd
000001d0: faab 993d ed96 bfbd b4f2 c9bd cea4 8f3d
000001e0: 3456 a63c 4ab4 f53d d918 dfbb 379b 773d
000001f0: f846 32bd 0a29 a0bb 7167 f83c b6fd b63d
00000200: 7346 c73d 761e 53bd 3c77 09be 31b2 cb3e
00000210: ef24 413c 7100 553e e5b2 61be 7a84 5dbc
00000220: d7de e03d 272b 2e3c 1006 98bd 7a9e 9c3d
00000230: cb23 813c a2df 7f3d 9171 b33d dfb0 cbbc
00000240: 9fb4 c93c 0c17 813e f215 09be 26a3 0dbd
00000250: 9c19 0d3e 5054 3a3d 1d26 b5bc dc4c 15bd
00000260: 41dd d1bb 9b20 3b3d 2963 a0bd 3438 063e
00000270: 60c0 923b 2b0d 2a3d 4510 04be 5714 7dbd
00000280: 7ee0 10bd 0a37 f93d d7a1 2ebc 26d6 34bd
00000290: 4588 a0bf 9c7d 813e 555b 53bd 4122 bd3e
000002a0: bb48 de3b dad3 bf3e acea 9d3c 5fde a33d
000002b0: 64c4 51bd fb87 b83d 2d36 f1bd e027 c33d
000002c0: e5b8 70bc a8ee ca3b 6e4e 99bb 28b8 8e3c
000002d0: fa77 023d 9787 893b e03a 8abd 3a4d a93d
000002e0: bb82 c0bd f066 003d 0c9d 513d f109 d9bd
000002f0: 8c23 aabd 149b 4ebb 56f2 89bc d80f 44bd
00000300: 07c2 393e 7c40 cebd 1177 ca3d dfc8 28be
00000310: a04e 1b3e 013a d5be f918 5b3c 273e 67bd
00000320: 9cd2 96bd 8a53 20be 610b 663c 1cd1 d4bd
00000330: 18bd 54bd 4471 25bc 850a f5bd 1286 ec3c
00000340: 3255 2f3d 39db 5dbd 4d19 22bd 756c 103e
00000350: b954 efbd 6373 d23d 7475 5dbd 24bb 1dbd
00000360: 8d7c 933d 9e94 203d f9c8 f6bc 2833 8f3c
00000370: 5047 50bb c339 2d3e ee4b 8bbc b081 22bd
00000380: 3837 29bd 1d9b 013e 2cf1 a7bd 8652 4abd
00000390: 898b 49bd a420 c7bc 7e0c 803f b386 933d
000003a0: 2c7e 9d3d 50f8 b93d 84bc e4bd ed73 f9bb
000003b0: d4b4 8bbd bdc0 9b3d 863f 85bd 3054 103d
000003c0: 1460 18bd 59e1 2abb f591 43bd d0d3 833d
000003d0: 1307 9e3e 696d bf3d 88a8 1cbd d060 ffbc
000003e0: 782a c83d b31b 2ebe 767c cb3d 642e 95bc
000003f0: 25db 35bc 7d7c 5cbd baae f53c 5f93 db3c

critic_fc1.bias f4 [64]
0.0017187225 -0.036511693 0.059401873 -0.19698615 -0.17062964 -0.16466893 0.02382514 0.06407494
0.002040584 0.026131224 -0.026549714 0.070567146 -0.09343427 -0.12211122 0.15713426 0.0043836795
-0.1139164 -0.07828158 -0.088433996 0.18570335 -0.1634965 -0.008392852 0.099961475 0.0066431565
0.14642696 0.09153664 -0.06998635 -0.011163429 0.07942578 -0.20009874 0.114610404 0.13200139
-0.13443065 0.19831158 0.14749247 -0.1493434 -0.21605517 0.17583764 0.20665926 -0.06669588
0.027254796 -0.16053441 -0.008569877 -0.031025797 -0.17254813 -0.13225468 -0.22077376 -0.17984144
0.022648148 0.09308544 -0.07536091 0.10389129 0.16904302 -0.075540565 0.17482617 -0.11805708
0.033419818 0.12558629 0.05355645 -0.21144594 -0.0178316 0.20752935 0.09455747 0.05788229
00000000: c246 e13a 498d 15bd 614f 733d bdb6 49be
00000010: 89b9 2ebe f99e 28be f12c c33c b939 833d
00000020: 52bb 053b 2611 d63c c97e d9bc 8285 903d
00000030: 775a bfbd 7315 fabd cee7 203e f8a4 8f3b
00000040: 004d e9bd 1852 a0bd e21c b5bd 0529 3e3e
00000050: a06b 27be 2c82 09bc 9ab8 cc3d d6ae d93b
00000060: f3f0 153e 9077 bb3d 0155 8fbd d1e6 36bc
00000070: fca9 a23d afe6 4cbe dcb8 ea3d 5f2b 073e
00000080: 30a8 09be 3112 4b3e 4408 173e 7aed 18be
00000090: 913d 5dbe c80e 343e 7c9e 533e d997 88bd
000000a0: 7345 df3c 2263 24be ab68 0cbc d029 febc
000000b0: 75b0 30be c56d 07be 8412 62be 5b28 38be
000000c0: 9c88 b93c 94a3 be3d d256 9abd f5c4 d43d
000000d0: 9d19 2d3e 03b5 9abd a205 333e e9c7 f1bd
000000e0: 38e3 083d b199 003e 025e 5b3d 4985 58be
000000f0: 9313 92bc 9382 543e 59a7 c13d fb15 6d3d
