DDPG/earliest_model/checkpoint_30.18.pth (torch, 542721 bytes, 6 tensors)

actor_fc1.weight f4 [400, 33]
0	0x3e16686a	0.14688268
1	0xbde44063	-0.11145093
2	0xbccb0f3f	-0.024787543
3	0xbe3c7350	-0.18403363
4	0x3b714296	0.003681337
5	0x3ec47185	0.3836786
6	0x3c0c5620	0.008565456
7	0x3e8b72dd	0.2723607
8	0x3ad8a7ae	0.0016529465
9	0xbdadc85c	-0.08485481
10	0xbd563628	-0.05229774
11	0x3d438c95	0.04774149
12	0x3d573947	0.05254486
13	0x3d2fdd8e	0.0429359
14	0xbeccb68d	-0.39983025
15	0xbe5c5e11	-0.21520258
16	0xbdc88feb	-0.09793075
17	0xbb6349b0	-0.0034681372
18	0x3e12af79	0.1432475
19	0xbe5da164	-0.21643597
20	0xbc2df1ac	-0.010616701
21	0xbc2b40f2	-0.010452496
22	0xbd7d3f56	-0.06182798
23	0x3db1420e	0.08655177
24	0xbe47b9a1	-0.19504406
25	0xbda8d12b	-0.082430206
26	0xbf3ce245	-0.7378276
27	0xbe8a3ac1	-0.2699795
28	0x3e6f7657	0.23384987
29	0x3dfb7d8e	0.12279807
30	0x3e5585ee	0.20851871
31	0xbdeefa18	-0.11668795
32	0x3f4a4d5d	0.79024297
33	0xbe780615	-0.2422107
34	0xbdc0842e	-0.09400211
35	0xbdcd919e	-0.1003754
36	0x3e1acffa	0.151184
37	0x3e210cda	0.15727559
38	0xbdbdb97c	-0.09263894
39	0x3da6603b	0.08123823
40	0xbddf306a	-0.10897906
41	0x3e6c61f2	0.23084238
42	0xbee16b31	-0.44027093
43	0xbe7b72bb	-0.24555485
44	0xbe653555	-0.22383626
45	0x3d4e7f4a	0.05041436
46	0x3e8f8c35	0.28036657
47	0xbcb58913	-0.022160089
48	0x3e1bb054	0.15203983
49	0xbe0cc861	-0.13748313
50	0xbe66ec5e	-0.22551104
51	0xbe05b5d6	-0.13057646
52	0x3e389b8d	0.18028088
53	0x3cf6c879	0.03012489
54	0xbe55e924	-0.20889717
55	0xbe25aab3	-0.16178398
56	0x3c3c74cf	0.011502459
57	0xbce18269	-0.027528005
58	0x3e8f1921	0.2794886
59	0xbf0521ec	-0.52004886
60	0x3ebf0d10	0.37314653
61	0xbeb5d7e5	-0.35516277
62	0xbd624fda	-0.055251934
63	0xbe659710	-0.22420907
64	0xbdb35f6c	-0.08758435
65	0xbfb436e6	-1.4079254
66	0xbdd8b637	-0.1058163
67	0xbe605cd4	-0.21910411
68	0xbe4b0c76	-0.19828972
69	0x3d037339	0.032092307
70	0x3e57ab67	0.21061479
71	0xbd57724c	-0.052599236
72	0xbd1bd11d	-0.038041223
73	0x3e08a6ab	0.13344829
74	0x3ec030eb	0.3753732
75	0xbdd01a90	-0.101613164
76	0xbdadbece	-0.08483659
77	0xbcc9c4e8	-0.024630025
78	0xbe98ef3f	-0.2987003
79	0x3ee949d6	0.45564145
80	0xbd69257e	-0.05692052
81	0xbdc8f381	-0.0981207
82	0xbe47fce0	-0.19530058
83	0x3ec3ff4f	0.38280722
84	0xbe464854	-0.19363528
85	0xbe9bdf0b	-0.30443606
86	0x3eb423ee	0.35183662
87	0xbe6916c4	-0.2276259
88	0x3ca954be	0.020670291
89	0xbca1a1ea	-0.019730527
90	0x3e290acc	0.16508025
91	0x3e68cd06	0.2273446
92	0xbebd6629	-0.36992005
93	0x3db86fbc	0.09005687
94	0x3e33bb54	0.17551929
95	0xbe196287	-0.14978991
96	0xbd5f9340	-0.054583788
97	0xbe04af78	-0.12957561
98	0x3ee6d7f7	0.45086643
99	0xbe86857c	-0.26273715
100	0xbe637b69	-0.22215046
101	0x3d94277b	0.07234093
102	0xbd5eda21	-0.054407243
103	0xbd71299f	-0.058877584
104	0xbec437bc	-0.38323772
105	0x3eadb0fb	0.33924088
106	0xbd963d4b	-0.073359095
107	0x3d9715f4	0.07377234
108	0xbead610f	-0.33863112
109	0xbed83e5f	-0.42235085
110	0xbe927c3f	-0.28610417
111	0x394a0498	0.00019265932
112	0x3edcace5	0.43100658
113	0x3ea7c8b6	0.32770318
114	0x3c87487c	0.016514055
115	0xbcaf02a1	-0.021363558
116	0x3cda8f0c	0.026679538
117	0x3d8000c2	0.062501445
118	0x3cd4211e	0.025894698
119	0xbd0360fa	-0.032074906
120	0xbe8d7b03	-0.27632913
121	0x3e8d6011	0.27612355
122	0x3e2378f4	0.15964109
123	0x3d07b273	0.033129167
124	0x3dc14426	0.094368264
125	0xbf2a9424	-0.66632295
126	0xbe0dc269	-0.13843693
127	0xbe7b55a7	-0.24544393
128	0x3e00f154	0.1259206
129	0x3d4cc6d8	0.04999432
130	0xbdc01570	-0.09379089
131	0xbf222d05	-0.63349944
132	0x3ea60780	0.32427597
133	0x3cad6bc7	0.021169556
134	0xbde03835	-0.10948221
135	0x3c2763de	0.010216681
136	0xbf3313e0	-0.699522
137	0x3e2a3732	0.16622618
138	0xbdc62676	-0.096753046
139	0x3e8659b0	0.262403
140	0x3e548806	0.20755014
141	0xbf0c1a30	-0.5472746
142	0xbf22c269	-0.63577896
143	0xbea4ccb1	-0.32187417
144	0xbe79ad24	-0.24382454
145	0x3d8d09db	0.068866454
146	0x3eb47092	0.35242134
147	0xbeadbd5c	-0.33933532
148	0xbec23a91	-0.37935308
149	0xbe85586e	-0.2604403
150	0x3e31304c	0.1730358
151	0x3ee69cd6	0.4504153
152	0x3c6c4a68	0.014422037
153	0x3ea64ebe	0.3248195
154	0xbe2d503b	-0.16925137
155	0xbf0092e0	-0.50224113
156	0x3e294d94	0.165335
157	0xbe57b6f9	-0.21065892
158	0x3e8f7f0f	0.28026626
159	0x3e07909a	0.13238755
160	0x3e1dfcb2	0.15428427
161	0x3d90103c	0.070343465
162	0x3dfa3bd3	0.12218442
163	0xbded3ae6	-0.115834996
164	0x3edb7b09	0.42867306
165	0x3e32df86	0.1746808
166	0x3f116079	0.5678783
167	0x3d6c00c8	0.057617933
168	0x3decd583	0.11564162
169	0xbea30b3e	-0.31844515
170	0x3ee76838	0.451967
171	0x3e06a184	0.13147551
172	0xbedb3791	-0.4281583
173	0x3e4ef973	0.20212345
174	0x3eb1e12b	0.34742102
175	0xbc989d56	-0.018629711
176	0xbdf25d25	-0.11834172
177	0xbd80c583	-0.06287672
178	0xbedcb0c2	-0.43103606
179	0x3d329c69	0.043606196
180	0x3ece95a4	0.40348542
181	0xbd8a99ec	-0.067676395
182	0xbd742d38	-0.059613436
183	0xbdba0879	-0.09083647
184	0xbd78e47c	-0.060764775
185	0x3ebabf86	0.36474246
186	0x3e1f6c57	0.15568672
187	0x3ea829df	0.32844445
188	0xbca4f4c9	-0.020136254
189	0xbeb0555a	-0.34440118
190	0x3e51f2bf	0.20502757
191	0x3ef8d8b0	0.4860282
192	0x3df12c86	0.1177607
193	0x3e97531f	0.29555604
194	0xbc96b086	-0.01839472
195	0xbd71afd9	-0.059005592
196	0x3a92d9d0	0.0011203829
197	0x3f6d51d9	0.92703015
198	0x3d9db6c4	0.077008754
199	0xbe683528	-0.22676528
200	0x3edb8d61	0.428813
201	0xbd969a23	-0.07353618
202	0x3b19e833	0.0023484349
203	0xbe19404e	-0.14965937
204	0x3e7406f8	0.23830783
205	0xbeecae39	-0.4622667
206	0x3e2f1cd7	0.17100845
207	0x3e387c72	0.18016222
208	0x3ea5f15e	0.3241071
209	0xbe517f82	-0.20458797
210	0x3e19dc40	0.15025425
211	0x3e74932d	0.23884268
212	0xbe65beea	-0.22436109
213	0x3eadf981	0.3397942
214	0x3c0c2c60	0.008555502
215	0x3e0ec5eb	0.13942687
216	0xbe857087	-0.26062414
217	0x3da1912a	0.07889016
218	0xbe9e8d7a	-0.30967313
219	0xbd61f8f2	-0.055169053
220	0x3e9fcd8a	0.312115
221	0x3af44a0f	0.0018637794
222	0xbc91e8d3	-0.017811215
223	0x3e3d9660	0.18514395
224	0x3e3907ee	0.18069431
225	0x3e8f4624	0.279832
226	0xbe309514	-0.17244369
227	0x3cf8eeb3	0.030387258
228	0xbf135cc9	-0.57563454
229	0x3d624cd4	0.05524905
230	0x3e961fd5	0.2932116
231	0xbd17c243	-0.037050497
232	0xbea943dc	-0.33059585
233	0x3e44fbee	0.19236729
234	0xbddc5b9c	-0.107596606
235	0x3ea7e8f1	0.32794908
236	0xbde77a4a	-0.11302622
237	0x3ebcf744	0.369074
238	0xbdafd5e5	-0.08585719
239	0xbd2ea621	-0.0426389
240	0xbda80d66	-0.082056805
241	0x3e786135	0.24255832
242	0x3e38bc15	0.18040498
243	0x3e6219de	0.2208018
244	0x3e3314f7	0.17488466
245	0xbee6962b	-0.45036444
246	0x3ea14a01	0.31501773
247	0x3ed1134c	0.40835035
248	0xbe467f2f	-0.19384454
249	0x3dbbd6a7	0.09171801
250	0x3e32c619	0.17458381
251	0xbe9e2946	-0.30890864
252	0x3de60fc4	0.11233476
253	0xbe03d2fd	-0.12873454
254	0x3d04e92c	0.032448933
255	0xbe1996b7	-0.149989

actor_fc1.bias f4 [400]
0	0x3ea83624	0.32853806
1	0xbe5098b9	-0.20370759
2	0x39380ce3	0.00017552408
3	0x3e393881	0.18087961
4	0xbe0949c9	-0.13407053
5	0xbd0f654a	-0.035008706
6	0xbf1af433	-0.6052887
7	0xbe98ea24	-0.29866135
8	0xbe9ac934	-0.3023163
9	0xbe5286cf	-0.20559238
10	0xbe430d78	-0.19048107
11	0xbd2113df	-0.03932559
12	0xbe980391	-0.2969022
13	0xbcb26ec1	-0.021781327
14	0xbe48c9b2	-0.1960819
15	0xbe1f1511	-0.1553538
16	0xbca2acc7	-0.019857777
17	0xbded0045	-0.11572317
18	0xbe40c2db	-0.18824331
19	0xbf0e6d46	-0.5563549
20	0xbeb3dba9	-0.35128525
21	0xbec4607b	-0.3835486
22	0xbe251f5e	-0.16125247
23	0xbf2c8964	-0.6739714
24	0xbe3e96ab	-0.18612163
25	0xbdb9f18e	-0.09079276
26	0x3df7c545	0.12098173
27	0x3bf95e56	0.0076101227
28	0xbecbdc38	-0.3981645
29	0xbe42e17a	-0.19031325
30	0xbf15abb8	-0.58465147
31	0xbe458bd4	-0.19291621
32	0xbe4aea76	-0.19816002
33	0xbe940b0e	-0.28914684
34	0x3e11173f	0.14169024
35	0xbf1cbbca	-0.61224043
36	0xbe6a580d	-0.22885151
37	0xbecd682e	-0.40118545
38	0x3e395bf4	0.18101484
39	0xbe8bce8e	-0.27306026
40	0xbf0bad79	-0.54561573
41	0xbe83d34c	-0.25747144
42	0xbdabd9dd	-0.083911635
43	0x3e418cba	0.18901339
44	0x3d48ce92	0.049025126
45	0xbec8be03	-0.39207467
46	0xbd3740e6	-0.044739626
47	0xbe96dd6c	-0.29465806
48	0xbe71cff9	-0.23614492
49	0xbeb5eef3	-0.35533866
50	0xbeb774a1	-0.35831168
51	0x3dc95de3	0.098323606
52	0xbdf0d565	-0.11759452
53	0xbee83df1	-0.45359758
54	0xbe5a7be2	-0.2133632
55	0xbf0e294a	-0.5553175
56	0xbcbb8559	-0.022890734
57	0xbe9e76d3	-0.3095003
58	0xbce80481	-0.02832246
59	0xbd6d95d1	-0.058004204
60	0xbec384ac	-0.38187158
61	0xbd83eb65	-0.06441382
62	0xbf08dc05	-0.53460723
63	0xbe102b84	-0.140791
64	0xbf226ef6	-0.6345056
65	0xbc6f4d36	-0.014605811
66	0xbea1d09c	-0.3160447
67	0xbe3a595c	-0.1819815
68	0xbee885c8	-0.45414567
69	0xbec26cd1	-0.37973645
70	0xbeff30ff	-0.4984207
71	0xbe486fde	-0.19573924
72	0x3dd19c73	0.102349184
73	0x3d81e628	0.06342727
74	0xbe194580	-0.14967918
75	0x3c8b1362	0.016977016
76	0xbb6c3671	-0.0036043192
77	0xbee0caf9	-0.43904856
78	0xbe23d477	-0.15999018
79	0xbe3817f6	-0.1797789
80	0xbd8eae73	-0.06966867
81	0xbe80f1b8	-0.25184417
82	0xbe9ed15b	-0.310191
83	0xbe5d946a	-0.21638647
84	0xbe0a38cc	-0.13498229
85	0xbecbd540	-0.39811134
86	0xbdfac0ea	-0.12243827
87	0xbe7b5128	-0.24542677
88	0xbe7faefa	-0.24969092
89	0xbf40ca68	-0.7530885
90	0xbf28c53e	-0.6592597
91	0xbe499cd8	-0.19688737
92	0xbb410e67	-0.0029458047
93	0xbe768c5d	-0.24076982
94	0xbe8fb978	-0.2807119
95	0xbd91afaa	-0.071135834
96	0xbeb2094d	-0.3477272
97	0xbe9204c2	-0.28519255
98	0xbe6834c7	-0.22676383
99	0xbe2f37aa	-0.17111078
100	0xbef436dd	-0.47698107
101	0xbe8150ce	-0.25256962
102	0xbe9ed3ba	-0.3102091
103	0xbe91cd37	-0.2847688
104	0xbdfbfbad	-0.12303863
105	0xbe39ca69	-0.1814362
106	0xbeb9bf9a	-0.36278993
107	0xbebb755b	-0.36612973
108	0xbeab0cf4	-0.3340832
109	0xbd2cd319	-0.042193506
110	0xbed68cbb	-0.41904244
111	0x3d84af10	0.06478703
112	0xbf05fc49	-0.5233808
113	0xbce11d35	-0.027479747
114	0x3d623976	0.05523058
115	0xbe9eeb00	-0.31038666
116	0x3c69374d	0.014234376
117	0xbeae3980	-0.34028244
118	0xbc955b3b	-0.018231979
119	0xbee466ae	-0.44609588
120	0xbe10a65b	-0.1412596
121	0xbe486106	-0.19568262
122	0xbdbac94c	-0.091204256
123	0x3db2c071	0.087281115
124	0xbf36ca18	-0.7140212
125	0xbd0ac146	-0.033875726
126	0xbea4d705	-0.32195297
127	0xbea5d529	-0.3238919
128	0xbef336e6	-0.47502822
129	0x3d1f9e3e	0.03896927
130	0xbe951fcc	-0.29125822
131	0xbd44141a	-0.047870733
132	0xbe436ac8	-0.19083703
133	0x3dedf94f	0.116198175
134	0xbe9584a1	-0.2920275
135	0x39ea6552	0.00044707448
136	0xbe6d1416	-0.23152193
137	0xbee3ccca	-0.4449218
138	0x3dac943b	0.0842671
139	0x3e374607	0.17897807
140	0xbe1459b4	-0.14487344
141	0xbf4283d2	-0.7598239
142	0xbeb6f62b	-0.35734686
143	0xbef8300f	-0.48474166
144	0xbe345c33	-0.17613296
145	0xbdd3f68c	-0.103497595
146	0xbe00e755	-0.12588246
147	0xbdfc5e63	-0.1232269
148	0xbe9eade2	-0.30992037
149	0xbf5f5aa8	-0.87247705
150	0xbee687c1	-0.45025447
151	0xbf11af89	-0.5690847
152	0xbcc92911	-0.024555715
153	0x3e3dc0c0	0.1853056
154	0xbe229215	-0.15876038
155	0xbef83658	-0.4847896
156	0xbf01ca86	-0.5069965
157	0xbf0c6b12	-0.54850876
158	0x3c6c7cee	0.014434082
159	0xbe43ad7d	-0.1910915
160	0xbe85026a	-0.25978404
161	0xbe9cdd12	-0.30637413
162	0xbed6ccc1	-0.4195309
163	0xbdf88593	-0.12134852
164	0xbda4e356	-0.080511734
165	0x3cceb4b9	0.02523266
166	0xbe503572	-0.20332888
167	0xbe9f16e9	-0.31072167
168	0xbe69e08d	-0.22839566
169	0xbe2f3b8a	-0.17112556
170	0xbe83a35b	-0.25710568
171	0x3de17643	0.11008885
172	0xbf223e89	-0.6337667
173	0x3c7fcee9	0.015613296
174	0xbed97c4e	-0.4247765
175	0xbd3e1198	-0.046403497
176	0xbcbd9e8a	-0.023146886
177	0x3e4a5efc	0.19762796
178	0xbe1a53eb	-0.15071075
179	0xbcad34d7	-0.02114336
180	0xbec19fa4	-0.3781711
181	0x3e172fcc	0.14764327
182	0xbea5e0ac	-0.32397974
183	0xbee0b53a	-0.43888265
184	0xbe82d93b	-0.2555636
185	0xbedb7b4d	-0.4286751
186	0xbd8cc9cf	-0.068744294
187	0xbd8ccbc6	-0.06874804
188	0xbce6019d	-0.028076941
189	0xbbed48a7	-0.007241327
190	0xbe065e07	-0.13121806
191	0xbe9c629e	-0.3054399
192	0xbf0ca0d4	-0.54932904
193	0xbee1d5f0	-0.44108534
194	0xbe961ac1	-0.29317287
195	0xbd00709a	-0.031357385
196	0xbf364c7c	-0.71210456
197	0xbe372b76	-0.17887673
198	0xbe2dc0a0	-0.16968012
199	0xbe8373a1	-0.25674155
200	0xbe97c67f	-0.29643628
201	0xbf1c74ee	-0.6111592
202	0xbe842c07	-0.2581484
203	0xbdbeac28	-0.0931018
204	0xbef6d97c	-0.48212802
205	0xbf1e8081	-0.6191483
206	0x3dee3c25	0.116325654
207	0xbc26b5d3	-0.010175186
208	0xbe5cf229	-0.21576752
209	0xbeee3b9b	-0.4652985
210	0xbe165f38	-0.1468476
211	0xbeba6dd0	-0.36411905
212	0xbd9181b7	-0.07104819
213	0xbeb15dc7	-0.3464186
214	0xbe00943b	-0.12556545
215	0xbeacb497	-0.3373153
216	0xbf04b6d8	-0.518415
217	0xbe6bcbf8	-0.23027027
218	0xbec3929b	-0.3819779
219	0xbed00c91	-0.40634587
220	0xbdfc473e	-0.12318276
221	0xbe191f6a	-0.1495339
222	0x3e135aa4	0.14390045
223	0xbdcbf957	-0.09959667
224	0x3c97fcba	0.018553127
225	0xbd96fa63	-0.07371976
226	0xbe5211af	-0.20514558
227	0xbd64fa0d	-0.05590253
228	0xbe09b984	-0.13449675
229	0xbeda6b08	-0.42659783
230	0xbdd3bc04	-0.103385955
231	0xbd889d6d	-0.066706516
232	0xbea13c5d	-0.31491366
233	0xbe30f7be	-0.17282006
234	0xbe881049	-0.26574925
235	0x3d091a5f	0.033472415
236	0xbebc27d5	-0.3674914
237	0xbcc28b45	-0.02374805
238	0xbd052dfc	-0.032514557
239	0xbf190456	-0.5977224
240	0xbe3c5fa5	-0.1839586
241	0xbb71102f	-0.0036783328
242	0xbe2474cb	-0.16060178
243	0xbec79649	-0.38981846
244	0xbdaef777	-0.08543294
245	0xbed3d50f	-0.41373488
246	0xbe46dc6f	-0.19420026
247	0xbe724fdc	-0.23663276
248	0xbf0e5ef2	-0.55613625
249	0xbeab911c	-0.33509147
250	0xbe863427	-0.26211664
251	0xbf23844e	-0.63873756
252	0xbe895d9a	-0.26829225
253	0xbe965614	-0.29362547
254	0xbe316847	-0.17324935
255	0xbee849b3	-0.45368728

actor_fc2.weight f4 [300, 400]
0	0xbe66d4fd	-0.22542186
1	0xbc5ebb13	-0.013594407
2	0xbe4f0e29	-0.20220245
3	0xbd93c3d5	-0.07215086
4	0xbd93a713	-0.07209601
5	0x3cd046ba	0.02542435
6	0x3c8e8c57	0.017400904
7	0x3cd05731	0.025432201
8	0xbe244c9b	-0.16044848
9	0x3dc03df5	0.09386817
10	0x3a9bb47c	0.001187935
11	0xbcb28e05	-0.021796236
12	0x3d4fe42c	0.05075471
13	0xbe365047	-0.17804061
14	0xbd00bb38	-0.031428546
15	0xbcef4984	-0.02920986
16	0xbd200610	-0.03906828
17	0xbd3c3d2b	-0.04595677
18	0xbd25b78b	-0.040458243
19	0xbe3b1b5d	-0.18272157
20	0xbe14363b	-0.14473812
21	0xbd33695f	-0.04380166
22	0xbe00f634	-0.12593919
23	0xbda5f9ed	-0.0810431
24	0xbe813cf7	-0.25241825
25	0x3c266981	0.01015699
26	0xbd76c118	-0.060242742
27	0x3ccb8d53	0.024847662
28	0x3b93b9d1	0.004508235
29	0xbe287a25	-0.16452844
30	0xbd4cb4d1	-0.049977127
31	0xbcc75d36	-0.024336439
32	0x3da9d8c0	0.08293295
33	0xbd488ce7	-0.0489625
34	0x3cfb1034	0.030647375
35	0x3cb66690	0.022265702
36	0xbe43ede3	-0.19133715
37	0xbcbc92a0	-0.023019135
38	0xbdee8284	-0.11645988
39	0xbd908cdf	-0.07058119
40	0xbe493749	-0.19649996
41	0x3cd9cdf2	0.02658746
42	0xbdba4017	-0.090942554
43	0xbc5ba5b9	-0.013406211
44	0xbd514028	-0.051086575
45	0x3c5670ce	0.013088418
46	0x3cc4aced	0.024008239
47	0xbd83ab40	-0.06429148
48	0x3d03836b	0.03210775
49	0xbd2fcc9b	-0.042919736
50	0xbb8a0ccd	-0.0042129518
51	0xbc203b60	-0.009779781
52	0xbd850fa5	-0.064971246
53	0xbdf26c9b	-0.11837121
54	0x3cbe3480	0.023218393
55	0xbc480cdd	-0.012210098
56	0x3bb61cbe	0.0055576256
57	0xbd421d35	-0.047391135
58	0xbe38ba92	-0.18039921
59	0xbdbcbee0	-0.09216094
60	0xbdbf30a6	-0.09335451
61	0xbda7bde6	-0.08190517
62	0xbe5b58f5	-0.21420653
63	0xbe2e54f5	-0.17024596
64	0xbd09c27e	-0.033632748
65	0xbc32c2c6	-0.010910695
66	0x3d1ed3cf	0.038776215
67	0xbde3b68c	-0.111188024
68	0xbd423c8d	-0.047421027
69	0xbdfbc1ce	-0.12292825
70	0xbddb2355	-0.107000984
71	0xbb891e30	-0.004184507
72	0xbcb63987	-0.022244228
73	0x3d2e637c	0.042575344
74	0xbe2a7b5b	-0.16648619
75	0x3b571773	0.0032820373
76	0xbd843700	-0.06455803
77	0xbcffb258	-0.03121297
78	0xbde4ab99	-0.11165542
79	0xbdb7b1af	-0.08969437
80	0xbc874345	-0.016511569
81	0xbdf6ae58	-0.12044972
82	0xbd98d429	-0.07462341
83	0xbb8c7025	-0.0042858296
84	0xbd8a57fc	-0.06755063
85	0xbd542df4	-0.051801637
86	0xbd63c764	-0.055610076
87	0xbd14211a	-0.03616438
88	0xbcdc740e	-0.026910808
89	0xbdf67c90	-0.12035477
90	0x3d649aec	0.055811808
91	0xbd7396fd	-0.059470166
92	0x3bb1f56e	0.005430869
93	0xbd8b60c0	-0.06805563
94	0x3cead315	0.028665105
95	0xbdcfadc1	-0.10140563
96	0xbd17c447	-0.03705242
97	0xbcac39be	-0.021023627
98	0xbd9116bc	-0.07084414
99	0xbd349df3	-0.044095945
100	0xbd45b336	-0.048266612
101	0xbdc0e6c7	-0.09419017
102	0xbd8f8b1b	-0.07008954
103	0xbd4fcdc8	-0.050733358
104	0xbe113cba	-0.14183322
105	0x3d0f09a2	0.034921296
106	0xbe3b437b	-0.1828746
107	0xbdbe1fcd	-0.09283409
108	0xbd0beab1	-0.034159366
109	0x3d66ea59	0.056375835
110	0xbdc48936	-0.095964834
111	0xbdd13356	-0.1021487
112	0xbd0b9790	-0.03408009
113	0x3d2c96b4	0.04213591
114	0x3d84b796	0.06480329
115	0xbd3fa488	-0.04678777
116	0xba42b682	-0.00074277085
117	0xbe2721e7	-0.16321526
118	0xbd6fcf08	-0.05854705
119	0xbdfab5c3	-0.122416995
120	0x3d220138	0.039551944
121	0xbd972354	-0.07379785
122	0x3d51ee6b	0.051252764
123	0xbdc176ac	-0.09446463
124	0x3ca2c236	0.019867998
125	0xbd9304a8	-0.071786225
126	0xbd34d3f8	-0.04414746
127	0xbd9465c7	-0.07245975
128	0xbd6521b6	-0.055940352
129	0xbd0691d1	-0.032853905
130	0xbd1ec40c	-0.038761184
131	0xbd7cd5dc	-0.06172739
132	0x3d78a4e6	0.060704134
133	0xbc87df32	-0.01658592
134	0xbc8af791	-0.016963752
135	0xbd96b019	-0.07357807
136	0xbd84aca9	-0.06478245
137	0xbd9aa94e	-0.075518236
138	0xbd486f6f	-0.048934396
139	0xbcfa2346	-0.030534398
140	0x3c963fb0	0.018340915
141	0xbde40d64	-0.111353666
142	0xbb961974	-0.004580671
143	0xbda880b5	-0.08227674
144	0xbe0db2a5	-0.13837679
145	0xbe17d04a	-0.1482555
146	0xbdbbe5ae	-0.09174667
147	0xbe592007	-0.21203624
148	0xbdd700ac	-0.10498175
149	0xbe37932d	-0.17927237
150	0xbdfdd487	-0.12394052
151	0xbd27fc8f	-0.041012343
152	0xbe38f1bf	-0.18060969
153	0xbe3f5f88	-0.18688786
154	0x3cf610d7	0.030037327
155	0xbd5168ee	-0.05112546
156	0xbdfed75a	-0.12443419
157	0xbdab8ebf	-0.08376836
158	0xbe523d6d	-0.20531245
159	0xbb36aa35	-0.0027872447
160	0x3cb48c80	0.022039652
161	0xbcaafd28	-0.020872667
162	0xbdd54c24	-0.10414913
163	0x3b81e102	0.0039635906
164	0xbe035283	-0.12824444
165	0x3dc3baaf	0.095570914
166	0xbd15d49d	-0.036579717
167	0xbd54c0b0	-0.051941574
168	0xbcf83eed	-0.030303443
169	0xbcab1fcb	-0.020889184
170	0xbd26d7cf	-0.040733155
171	0xbdce0427	-0.10059386
172	0xbdb5098e	-0.08839713
173	0xbe453557	-0.19258629
174	0xbd127ad9	-0.035761688
175	0x3b2e22f0	0.0026571117
176	0xbaa0a248	-0.0012255395
177	0xbda7975f	-0.081831686
178	0xbdd0e3c6	-0.10199694
179	0xbd2d3702	-0.042288788
180	0x3be5f6d5	0.00701795
181	0xbd9bc0b3	-0.07605114
182	0x3cb28440	0.021791577
183	0xbd0ae4fc	-0.033909783
184	0xbe2d730f	-0.16938423
185	0xbd3318a3	-0.043724667
186	0xbe0401c9	-0.12891306
187	0xbdd0c0f0	-0.1019305
188	0xbca725b1	-0.020403715
189	0xbdcc524c	-0.099766344
190	0xbe273790	-0.16329789
191	0x3caecd06	0.021337997
192	0xbdc5c42a	-0.09656556
193	0xbd248b19	-0.040171716
194	0xbdbd5fda	-0.09246798
195	0xbd9e9ea8	-0.07745105
196	0xbc896cec	-0.01677557
197	0xbc5514ce	-0.0130054485
198	0xbd71b1e1	-0.05900753
199	0xbe106258	-0.14100015
200	0xbe06ffd6	-0.13183531
201	0xbd0497f4	-0.032371476
202	0xbc927245	-0.017876754
203	0xbe24ba39	-0.16086663
204	0xbdac1332	-0.08402099
205	0x39e9543a	0.00044503977
206	0xbc7dc740	-0.015489399
207	0x3d3661e4	0.04452695
208	0xbd498e5d	-0.049208034
209	0xbe0ed8e0	-0.13949919
210	0xbbad07fb	-0.0052804924
211	0xbdc999cd	-0.09843788
212	0xbd508b49	-0.050914083
213	0xbe3671ac	-0.178168
214	0x3d9effd0	0.07763636
215	0xbd4d8ca0	-0.05018294
216	0xbe034937	-0.12820898
217	0xbd15c400	-0.036563873
218	0xbde941ab	-0.11389478
219	0xbd9934e2	-0.0748079
220	0x3d9d999c	0.07695314
221	0xbe8f1375	-0.27944532
222	0xbe0329f5	-0.12808974
223	0x3def8b7c	0.116965264
224	0x3d97cd75	0.07412235
225	0xbe10beda	-0.14135304
226	0xbb831eb5	-0.0040014633
227	0xbd4eb50b	-0.050465625
228	0xbcf71ba8	-0.030164555
229	0x3c82be0e	0.015959766
230	0xbe32d847	-0.17465316
231	0xbdf85e01	-0.12127305
232	0x3e232c08	0.15934765
233	0xbe14b4ce	-0.14522097
234	0xbd74832e	-0.059695415
235	0xbd55dafb	-0.05221079
236	0x3cc70ace	0.024297144
237	0x3d7ab106	0.06120398
238	0xbd5e6e78	-0.05430457
239	0xbe68f520	-0.22749758
240	0xbcfaea8d	-0.03062942
241	0xbc9c6914	-0.019093074
242	0xbbd60488	-0.006531302
243	0x3d9f790b	0.07786759
244	0xbdc1f655	-0.09470812
245	0xbd8340df	-0.064088576
246	0x3da96103	0.08270457
247	0xbe046502	-0.12929156
248	0x3dbd8bed	0.09255204
249	0xbe4212b4	-0.18952447
250	0xbbd4b975	-0.0064918348
251	0xbd09bdee	-0.033628397
252	0xbddb2ecc	-0.10702285
253	0xbe5b0455	-0.21388371
254	0x3cc0cac1	0.02353418
255	0x3d4f339f	0.05058634

actor_fc2.bias f4 [300]
0	0x3ce94789	0.028476493
1	0x3d468bb6	0.048473082
2	0xbdce31b4	-0.10068074
3	0xbdcc7ab6	-0.09984343
4	0xbd732dc2	-0.05936981
5	0xbae8c3a0	-0.0017758496
6	0x3c7bd40d	0.015370381
7	0xbdecab56	-0.11556117
8	0xbd882b24	-0.066488534
9	0x3e457303	0.19282155
10	0xbd9a0cbc	-0.0752196
11	0xbe349f7a	-0.1763896
12	0xbd82af7e	-0.06381129
13	0xbde1ddab	-0.11028608
14	0xbca915d7	-0.020640297
15	0xbd02ae70	-0.031904638
16	0xbdc711e6	-0.09720211
17	0xbc839e6c	-0.016066752
18	0xbe110755	-0.14162953
19	0xbc80a461	-0.015703382
20	0xbdfda9fe	-0.12385939
21	0xbd75eb04	-0.06003858
22	0xbd91ef24	-0.071256906
23	0xbe9c42f8	-0.30519843
24	0xbe30cea7	-0.17266332
25	0x3cb43ffc	0.022003166
26	0xbd6f79d1	-0.058465783
27	0x3d6e27dd	0.058143485
28	0xbea9579b	-0.3307465
29	0xbd8facaa	-0.07015355
30	0x3e07b3a5	0.13252123
31	0x3e48da98	0.19614637
32	0xbefb39af	-0.49067447
33	0x3e353f35	0.17699893
34	0xbdb3053f	-0.08741235
35	0xbc5b5276	-0.013386359
36	0x3d00f081	0.031479362
37	0xbf0b447c	-0.54401374
38	0x3e4b6c2d	0.19865485
39	0xbc343c16	-0.011000654
40	0x3e63e91e	0.22256896
41	0xbec92937	-0.39289257
42	0xbce71386	-0.028207552
43	0xbd06c5ee	-0.032903604
44	0x3cdf242a	0.027238924
45	0xbcf9f77b	-0.030513516
46	0xbc88e525	-0.016710827
47	0x3e379985	0.17929657
48	0xbe762033	-0.2403572
49	0xba3f972f	-0.00073086
50	0xbd82f13e	-0.063936695
51	0xbde38ed9	-0.111112304
52	0xbe99dde7	-0.3005211
53	0xbd130d60	-0.035901427
54	0xbac8f0a6	-0.0015330508
55	0x3d4e291d	0.050332177
56	0xbe421d47	-0.18956481
57	0xbdad9930	-0.08476484
58	0x3e1f9f4a	0.15588108
59	0xbe39d509	-0.18147673
60	0xbdf6aff8	-0.12045282
61	0xbd8c4891	-0.068497784
62	0x3b379165	0.0028010246
63	0x3d8939b1	0.06700457
64	0xbdeb2635	-0.11481897
65	0xbc2d642e	-0.010582967
66	0x3c3ac1a4	0.011398707
67	0xbe10f154	-0.1415456
68	0xbd51ca62	-0.051218398
69	0xbeaaec78	-0.33383536
70	0xbe8a8ced	-0.27060643
71	0x3d0be583	0.034154426
72	0xbdd17e51	-0.10229171
73	0xbdfe2e71	-0.12411202
74	0xbdef2709	-0.11677367
75	0xbe07a6b4	-0.13247186
76	0xbd310f9f	-0.043227788
77	0xbd81a376	-0.06330006
78	0xbe569a76	-0.2095736
79	0xbcf0c304	-0.029389866
80	0xbd35b58c	-0.04436259
81	0x3e179b3b	0.1480531
82	0xbbae641d	-0.005321993
83	0x3d29d9f0	0.041467607
84	0xbda9013c	-0.082521886
85	0xbe0680b2	-0.13135031
86	0xbdc2199e	-0.09477542
87	0x3d9866c5	0.07441477
88	0x3c9383aa	0.018007118
89	0xbdae56cf	-0.08512651
90	0x3e5e4178	0.21704662
91	0xbd9a8046	-0.075439975
92	0x3d8cb5a0	0.0687058
93	0xbc29a620	-0.010354549
94	0xbb80ac3e	-0.003926783
95	0xbe97e986	-0.29670352
96	0x3e0e7654	0.13912326
97	0x3e1f411f	0.15552185
98	0x3c54ef37	0.012996486
99	0xbd3eadec	-0.046552584
100	0x3d01476b	0.03156225
101	0xbc01591c	-0.0078947805
102	0xbd185328	-0.03718868
103	0x3e0d953c	0.1382646
104	0xbd477a08	-0.048700362
105	0x3c3bd985	0.011465435
106	0x3c919819	0.017772721
107	0xbd90e1ec	-0.07074341
108	0xb980f36f	-0.00024595435
109	0xbdd4e097	-0.103943996
110	0xbdcdd07e	-0.10049532
111	0xbd6c9020	-0.057754636
112	0x3e2cddc6	0.16881475
113	0x3ceccc3d	0.028905982
114	0xbd112a83	-0.035440933
115	0xbe33d50c	-0.1756174
116	0xbe154b92	-0.14579609
117	0xbbbcf5a3	-0.005766587
118	0x3d0ea7e3	0.034828078
119	0x3c6e4740	0.0145433545
120	0x3c5a1882	0.013311507
121	0xbe1f9a80	-0.15586281
122	0x3db22af9	0.08699603
123	0x3d64ee8d	0.055891562
124	0x3d33cbf9	0.043895695
125	0xbde240a7	-0.11047488
126	0xbd35e62a	-0.044408955
127	0xbe1549fc	-0.14579004
128	0x3c782b7e	0.015147088
129	0xbdbe92ed	-0.093053676
130	0x3ca7c324	0.020478792
131	0xbc84fdd0	-0.016234308
132	0x3c2d91ab	0.010593812
133	0x3d57bb4e	0.052668862
134	0x3c9449e6	0.018101644
135	0xbd6639a6	-0.05620732
136	0xbde485da	-0.11158343
137	0x3e13c345	0.14429958
138	0xbd4432f7	-0.047900166
139	0xbe017142	-0.1264086
140	0xbe172c80	-0.14763069
141	0xbba11343	-0.0049156263
142	0xbdcef376	-0.1010503
143	0xbe1a2c05	-0.15055855
144	0x3d88b7a7	0.06675654
145	0x3d31cbda	0.0434073
146	0xbd5adc99	-0.053433035
147	0x3c847376	0.016168337
148	0xbdbd3771	-0.0923909
149	0xbe0d5d87	-0.13805209
150	0xbd9c3131	-0.0762657
151	0x3dca131c	0.09866926
152	0xbe526699	-0.2054695
153	0x3e275d49	0.16344179
154	0xbd5e9f3e	-0.054351084
155	0xbda33db4	-0.07970753
156	0xbe6b58c2	-0.22983077
157	0x3dd5e907	0.10444837
158	0xbdaf8dcd	-0.08571968
159	0xbbbd10c5	-0.0057698213
160	0xbe781719	-0.24227561
161	0xbe2e7751	-0.17037703
162	0xbd824fa3	-0.06362846
163	0xbdf34124	-0.11877659
164	0x3e22dc6f	0.15904401
165	0xbe2735b4	-0.1632908
166	0x3df992db	0.121862136
167	0xbcd93cb2	-0.0265182
168	0xbe2e1f81	-0.17004205
169	0xbe2698a5	-0.16269167
170	0xbe5c0211	-0.21485163
171	0xbe0ee78a	-0.13955513
172	0xbe43bb7d	-0.1911449
173	0x3e020751	0.12698103
174	0xbdc1fbd5	-0.09471861
175	0xbc371c7f	-0.011176228
176	0x3e26b5b8	0.16280258
177	0x3e3519df	0.1768565
178	0xbb2d05fe	-0.0026401277
179	0xbd82364c	-0.063580126
180	0x3bf1d4ce	0.0073801046
181	0x3d11ade4	0.035566226
182	0x3d968be3	0.073509
183	0xbe2867df	-0.16445874
184	0x3de2a92f	0.110674255
185	0xbcf8a469	-0.030351834
186	0x3c658985	0.014009838
187	0xbd5b8e20	-0.053602338
188	0xbc6a8558	-0.014314018
189	0xbd3dc221	-0.046327714
190	0x3dbd2ec3	0.09237435
191	0xbc88923e	-0.016671296
192	0xbd46b9a6	-0.048516892
193	0x3b0e09d3	0.0021673336
194	0x3d23a40c	0.03995137
195	0xbe2943cc	-0.16529769
196	0xbdbed92c	-0.09318766
197	0xbea47dea	-0.32127315
198	0x3e1b75bb	0.1518163
199	0xbdda669b	-0.10664102
200	0xbd8bcfcc	-0.068267435
201	0xbee8a0e9	-0.45435265
202	0xbcaa2bcb	-0.020772835
203	0xbd15fd38	-0.03661844
204	0x3cc3b483	0.023889786
205	0xbe1e7926	-0.15475902
206	0x3e33c0c6	0.17554006
207	0xbe4edacf	-0.20200656
208	0xbe0bc3b8	-0.1364888
209	0xbd8451d6	-0.064609215
210	0xbda649f0	-0.08119571
211	0x3e033037	0.12811361
212	0xbd0ef9c5	-0.034906168
213	0x3e26aff8	0.16278064
214	0x3e25e398	0.16200101
215	0xbe53498b	-0.20633523
216	0x3e5d5664	0.21614987
217	0xbe6c7f9d	-0.23095556
218	0xbcdfdb09	-0.027326124
219	0xbd1782ca	-0.036989965
220	0x3d8acb45	0.06777052
221	0xbdc5fa5a	-0.096668914
222	0xbee590fa	-0.4483717
223	0xbe28fcbb	-0.16502659
224	0xbdc84c6f	-0.097802036
225	0xbcfa02a9	-0.030518847
226	0xbdcfc985	-0.10145859
227	0xbd1495da	-0.036275722
228	0xbb8c698c	-0.004285043
229	0xbd9dfdcd	-0.07714424
230	0xbe0c6be1	-0.13713028
231	0xbdfb2855	-0.12263552
232	0x3a777052	0.0009439039
233	0x3e742c7f	0.23845099
234	0xbee6dcb7	-0.45090267
235	0xbeb4b24f	-0.3529229
236	0xbdc00914	-0.093767315
237	0xbc6fbbef	-0.014632209
238	0xbdfadc77	-0.122490816
239	0xbe5b3641	-0.21407415
240	0xbd0189fb	-0.03162573
241	0x3c8a3425	0.016870568
242	0xbd9af2aa	-0.07565816
243	0xbd72d7dc	-0.05928789
244	0xbda67623	-0.081280015
245	0xbc6c5107	-0.014423615
246	0xbd661451	-0.05617172
247	0x3d585bbc	0.05282186
248	0x3d2519b5	0.04030772
249	0xbe0b6063	-0.13610987
250	0xbe44a86e	-0.19204876
251	0xbdad8fbd	-0.084746815
252	0x3c333681	0.010938288
253	0xbde64d11	-0.11245168
254	0x3cb7ba01	0.02242756
255	0xbd4ccdc9	-0.05000094

actor_fc3.weight f4 [4, 300]
0	0xbd6271fd	-0.05528449
1	0xbdacd6c2	-0.08439399
2	0x3e3778ce	0.17917177
3	0x3d46e822	0.048561223
4	0x3d67b775	0.056571443
5	0xbdbd1018	-0.09231585
6	0x3cdb86df	0.02679771
7	0xbcf722c1	-0.03016794
8	0xbd019dde	-0.031644695
9	0xbe69a526	-0.22816905
10	0x3e243f29	0.16039719
11	0x3def5c48	0.11687523
12	0x3e7e66ed	0.2484395
13	0x3cde6140	0.027145982
14	0x3dc6e404	0.09711459
15	0xbecbe12e	-0.39820236
16	0xbf07c021	-0.5302754
17	0xbcd90e69	-0.02649613
18	0xbc30dea0	-0.010795265
19	0xbd1612ea	-0.03663913
20	0x3d12dcb5	0.035855014
21	0x3d53feea	0.051756777
22	0x3d9cbc68	0.07653123
23	0xbde2e52a	-0.11078866
24	0xbe7c34be	-0.24629495
25	0x3d2ea518	0.042637914
26	0x3e70c21b	0.23511545
27	0x3f1b5a0f	0.60684294
28	0xbd0f7923	-0.035027634
29	0x3cf40ab2	0.029790256
30	0x3f0a99a6	0.541407
31	0xbef072e4	-0.46962655
32	0xbe33a8be	-0.17544839
33	0x3eba2f4b	0.36364207
34	0xbaf8e8c5	-0.0018990269
35	0x3e664f45	0.22491176
36	0x3ce9f6b1	0.028560014
37	0xbe3c2dc7	-0.18376838
38	0x3d8deee4	0.069303304
39	0xbc23ac59	-0.009989821
40	0x3e1c92a1	0.1529031
41	0xbe3c669d	-0.18398519
42	0x3ce8aab2	0.028401706
43	0x3ca131da	0.019677091
44	0x3e534cc2	0.2063475
45	0xbe043cc2	-0.12913802
46	0x3e5e025e	0.2168059
47	0x3da2902a	0.07937653
48	0x3c3a8d5a	0.01138624
49	0x3de147bb	0.110000096
50	0xbe3c769a	-0.18404618
51	0xbd2f1c22	-0.04275144
52	0xbcb9ed68	-0.022696212
53	0x3d080690	0.033209383
54	0x3ce01f9f	0.027358828
55	0xbf7c2c51	-0.9850512
56	0x3e820be8	0.2539971
57	0xbf10e3fb	-0.5659787
58	0xbda7466f	-0.08167731
59	0x3e51c35e	0.20484683
60	0x3d088426	0.03332915
61	0xbb84cf06	-0.0040529994
62	0x3d987c68	0.074456036
63	0x3e90f41a	0.28311235
64	0xbe1ac49a	-0.1511406
65	0xb9dd3941	-0.00042195062
66	0x3f327f85	0.6972583
67	0xbef89559	-0.48551443
68	0xbcebb06d	-0.02877065
69	0x3ee2aaaf	0.44270846
70	0xbd8f4353	-0.06995263
71	0x3c2f927c	0.010716077
72	0x3d9e0de3	0.077174924
73	0x39d9a1dc	0.0004151006
74	0xbcaa4bec	-0.020788155
75	0x3d829d2d	0.06377635
76	0x3db3d0db	0.087800704
77	0x3f420f59	0.7580467
78	0x3d834039	0.06408734
79	0x3e5c3173	0.21503238
80	0x3d9fc9ba	0.07802148
81	0xbe728b9d	-0.2368607
82	0x3e34db90	0.17661881
83	0x3e26d1f6	0.16291031
84	0x3bec75ad	0.0072161765
85	0xbe8a5f8f	-0.2702603
86	0x3e07772e	0.13229057
87	0xbe10d5b2	-0.14144018
88	0xbe3f8224	-0.18701988
89	0xbd766b3b	-0.060160857
90	0x3e00ee3d	0.1259088
91	0xbe7115f5	-0.23543532
92	0xbeeccb29	-0.4624875
93	0x3cbbd724	0.022929735
94	0xbe687bee	-0.22703525
95	0xbe4a1f56	-0.19738516
96	0x3dac2ecf	0.084073655
97	0xbe42fb9c	-0.19041294
98	0x3d70832c	0.058718845
99	0x3ec15bc3	0.3776532
100	0xbe068a81	-0.13138773
101	0xbddb406f	-0.10705649
102	0x3d88baff	0.06676292
103	0xbd5ab5ef	-0.05339616
104	0xbf012bb7	-0.5045733
105	0x3f2968ba	0.66175425
106	0xbd1ea50c	-0.03873162
107	0xbdda876d	-0.10670362
108	0x3efd813d	0.49512663
109	0x3e0394d8	0.12849748
110	0x3e21a4e3	0.15785556
111	0x3e1a5a74	0.15073568
112	0x3f09fb65	0.5389922
113	0xbc314b5e	-0.010821192
114	0x3cb47751	0.02202955
115	0x3edff373	0.43740425
116	0xbdd21d2d	-0.10259471
117	0x3cc951f8	0.024575219
118	0xbd861aaf	-0.06548058
119	0xbd0bc394	-0.034122065
120	0x3dd4a4f4	0.10383025
121	0x3e28ef5b	0.16497557
122	0xbde9e60e	-0.114208326
123	0xbd39742e	-0.045276813
124	0x3de48eb0	0.11160028
125	0xbea8d91d	-0.32978144
126	0x3db21971	0.08696259
127	0xbda297db	-0.079391204
128	0xbe117c10	-0.14207482
129	0x3db70f85	0.08938507
130	0x3eb0e4a4	0.3454944
131	0xbeab9dbe	-0.33518785
132	0x3cc27327	0.02373655
133	0x3f48f5fa	0.7850033
134	0x3f0a00dd	0.5390757
135	0xbc745a29	-0.014914074
136	0x3d13fd36	0.036130153
137	0x3e58c385	0.21168335
138	0xbc530dca	-0.012881706
139	0xbd74dfb5	-0.059783656
140	0x3dc39085	0.09549049
141	0xbf0b6217	-0.5444655
142	0x3d90086b	0.070328556
143	0x3d7b6542	0.061375864
144	0xbe4d6eb9	-0.20061769
145	0xbe9ea7cd	-0.30987397
146	0x3c2fd9b3	0.010733056
147	0x3d506cb2	0.05088491
148	0x3db81273	0.08987894
149	0x3d95a1b6	0.073062345
150	0xbdcbdfce	-0.09954797
151	0x3de8b09d	0.11361811
152	0xbe25f849	-0.16207995
153	0xbd7048d4	-0.058663204
154	0xbd754650	-0.05988151
155	0x3c05a886	0.008157855
156	0xbef75f00	-0.48314667
157	0x3deb8db9	0.11501641
158	0xbf1496bd	-0.5804251
159	0x3ca3ff80	0.020019293
160	0xbe03ec1d	-0.12883039
161	0x3b5e8942	0.0033956324
162	0x3ec114a8	0.37711072
163	0xbe2c2b7f	-0.16813467
164	0x3e939272	0.28822666
165	0xbe07f7c2	-0.13278106
166	0x3e63acc5	0.22233875
167	0xbea0f785	-0.31438842
168	0xbf1b7440	-0.6072426
169	0xbe923553	-0.28556308
170	0x3ed971c2	0.42469603
171	0xbd49c532	-0.049260326
172	0x3e3fcb1e	0.18729827
173	0x3e17d2b8	0.14826477
174	0xbde6feac	-0.112790436
175	0xbe324c4d	-0.17411919
176	0xbea10905	-0.31452194
177	0xbeae9658	-0.34099078
178	0x3de84425	0.113411225
179	0x3e9cedb2	0.30650097
180	0xbd0a5c95	-0.0337797
181	0xbe145b30	-0.1448791
182	0xbf1b4cff	-0.6066436
183	0xbba06ed2	-0.0048960233
184	0xbe126f7b	-0.14300339
185	0x3de4c88a	0.11171062
186	0x3e7142f4	0.23560697
187	0xbbb0016c	-0.0053712633
188	0xbe9ec4c7	-0.31009504
189	0x3b985440	0.0046487153
190	0x3dc88da5	0.097926416
191	0x3d8b0004	0.06787112
192	0xbe107692	-0.14107731
193	0x3d8cc97b	0.06874367
194	0x3c9feb17	0.01952128
195	0x3d8650ac	0.06558356
196	0xbd568eb8	-0.0523822
197	0xbe2ed558	-0.17073572
198	0x3d3a9718	0.04555425
199	0x3e4435ae	0.19161102
200	0xbdd3790e	-0.10325824
201	0xbe8c276f	-0.27373835
202	0x3c124de7	0.008929706
203	0xbd2891f4	-0.041154817
204	0x3c60cdb0	0.013720915
205	0x3ed7b786	0.42132205
206	0x3ea03f43	0.31298265
207	0x3e7947e3	0.24343829
208	0xbdcd8e70	-0.100369334
209	0x3cf25cac	0.029585205
210	0xbe559749	-0.20858492
211	0xbc9e047b	-0.019289246
212	0xbd0b506b	-0.03401224
213	0x3dc852fa	0.097814515
214	0xbd0c4a82	-0.034250744
215	0x3dc71dd3	0.097224854
216	0xbf23482e	-0.6378201
217	0xbde1f2b9	-0.11032624
218	0xb9b6d6a4	-0.00034873665
219	0x3bc4c337	0.0060047167
220	0xbef38efc	-0.47570026
221	0xbeb20de4	-0.34776223
222	0xbe184c0e	-0.14872763
223	0x3e24ec6e	0.16105816
224	0x3ecaa55e	0.3957929
225	0x3d220ffb	0.03956602
226	0xbca53651	-0.020167502
227	0x3d9a231c	0.07526228
228	0xbe977d1a	-0.29587632
229	0xbe0faffc	-0.14031976
230	0x3e4acf92	0.19805744
231	0x3b64dceb	0.0034921716
232	0xbe5f979a	-0.21835175
233	0x3e2cc0a3	0.1687036
234	0xbe20d66d	-0.15706797
235	0xbdb9fa17	-0.09080904
236	0x3e4924c3	0.1964293
237	0x3c4f5d90	0.012656584
238	0xbe18b127	-0.14911328
239	0xbe449a92	-0.19199589
240	0x3c90f2f6	0.017693978
241	0x3ee71aa1	0.45137504
242	0x3d00771e	0.0313636
243	0x3b93e674	0.004513556
244	0x3eaf4a25	0.34236255
245	0x3d8af790	0.067855
246	0xbed03ad4	-0.40669882
247	0x3ddecb9f	0.108786814
248	0xbf1b1eee	-0.6059407
249	0x3e56cf53	0.20977525
250	0x3d167615	0.036733706
251	0xbde880d9	-0.11352701
252	0x3d04945e	0.032368056
253	0x3e2bfd66	0.16795883
254	0x3edc7de1	0.43064788
255	0xbe5ec276	-0.21753868

actor_fc3.bias f4 [4]
0	0x38568d56	5.1153205e-05
1	0x3d1d0441	0.038334135
2	0x3cf9c20c	0.030488037
3	0xbd3ffbcf	-0.046871003
